Model: "efficientnetv2-l"
__________________________________________________________________________________________________
 Layer (type)                Output Shape                 Param #   Connected to                  
==================================================================================================
 input_1 (InputLayer)        [(None, 224, 224, 3)]        0         []                            
                                                                                                  
 rescaling (Rescaling)       (None, 224, 224, 3)          0         ['input_1[0][0]']             
                                                                                                  
 stem_conv (Conv2D)          (None, 112, 112, 32)         864       ['rescaling[0][0]']           
                                                                                                  
 stem_bn (BatchNormalizatio  (None, 112, 112, 32)         128       ['stem_conv[0][0]']           
 n)                                                                                               
                                                                                                  
 stem_activation (Activatio  (None, 112, 112, 32)         0         ['stem_bn[0][0]']             
 n)                                                                                               
                                                                                                  
 block1a_project_conv (Conv  (None, 112, 112, 32)         9216      ['stem_activation[0][0]']     
 2D)                                                                                              
                                                                                                  
 block1a_project_bn (BatchN  (None, 112, 112, 32)         128       ['block1a_project_conv[0][0]']
 ormalization)                                                                                    
                                                                                                  
 block1a_project_activation  (None, 112, 112, 32)         0         ['block1a_project_bn[0][0]']  
  (Activation)                                                                                    
                                                                                                  
 block1a_add (Add)           (None, 112, 112, 32)         0         ['block1a_project_activation[0
                                                                    ][0]',                        
                                                                     'stem_activation[0][0]']     
                                                                                                  
 block1b_project_conv (Conv  (None, 112, 112, 32)         9216      ['block1a_add[0][0]']         
 2D)                                                                                              
                                                                                                  
 block1b_project_bn (BatchN  (None, 112, 112, 32)         128       ['block1b_project_conv[0][0]']
 ormalization)                                                                                    
                                                                                                  
 block1b_project_activation  (None, 112, 112, 32)         0         ['block1b_project_bn[0][0]']  
  (Activation)                                                                                    
                                                                                                  
 block1b_drop (Dropout)      (None, 112, 112, 32)         0         ['block1b_project_activation[0
                                                                    ][0]']                        
                                                                                                  
 block1b_add (Add)           (None, 112, 112, 32)         0         ['block1b_drop[0][0]',        
                                                                     'block1a_add[0][0]']         
                                                                                                  
 block1c_project_conv (Conv  (None, 112, 112, 32)         9216      ['block1b_add[0][0]']         
 2D)                                                                                              
                                                                                                  
 block1c_project_bn (BatchN  (None, 112, 112, 32)         128       ['block1c_project_conv[0][0]']
 ormalization)                                                                                    
                                                                                                  
 block1c_project_activation  (None, 112, 112, 32)         0         ['block1c_project_bn[0][0]']  
  (Activation)                                                                                    
                                                                                                  
 block1c_drop (Dropout)      (None, 112, 112, 32)         0         ['block1c_project_activation[0
                                                                    ][0]']                        
                                                                                                  
 block1c_add (Add)           (None, 112, 112, 32)         0         ['block1c_drop[0][0]',        
                                                                     'block1b_add[0][0]']         
                                                                                                  
 block1d_project_conv (Conv  (None, 112, 112, 32)         9216      ['block1c_add[0][0]']         
 2D)                                                                                              
                                                                                                  
 block1d_project_bn (BatchN  (None, 112, 112, 32)         128       ['block1d_project_conv[0][0]']
 ormalization)                                                                                    
                                                                                                  
 block1d_project_activation  (None, 112, 112, 32)         0         ['block1d_project_bn[0][0]']  
  (Activation)                                                                                    
                                                                                                  
 block1d_drop (Dropout)      (None, 112, 112, 32)         0         ['block1d_project_activation[0
                                                                    ][0]']                        
                                                                                                  
 block1d_add (Add)           (None, 112, 112, 32)         0         ['block1d_drop[0][0]',        
                                                                     'block1c_add[0][0]']         
                                                                                                  
 block2a_expand_conv (Conv2  (None, 56, 56, 128)          36864     ['block1d_add[0][0]']         
 D)                                                                                               
                                                                                                  
 block2a_expand_bn (BatchNo  (None, 56, 56, 128)          512       ['block2a_expand_conv[0][0]'] 
 rmalization)                                                                                     
                                                                                                  
 block2a_expand_activation   (None, 56, 56, 128)          0         ['block2a_expand_bn[0][0]']   
 (Activation)                                                                                     
                                                                                                  
 block2a_project_conv (Conv  (None, 56, 56, 64)           8192      ['block2a_expand_activation[0]
 2D)                                                                [0]']                         
                                                                                                  
 block2a_project_bn (BatchN  (None, 56, 56, 64)           256       ['block2a_project_conv[0][0]']
 ormalization)                                                                                    
                                                                                                  
 block2b_expand_conv (Conv2  (None, 56, 56, 256)          147456    ['block2a_project_bn[0][0]']  
 D)                                                                                               
                                                                                                  
 block2b_expand_bn (BatchNo  (None, 56, 56, 256)          1024      ['block2b_expand_conv[0][0]'] 
 rmalization)                                                                                     
                                                                                                  
 block2b_expand_activation   (None, 56, 56, 256)          0         ['block2b_expand_bn[0][0]']   
 (Activation)                                                                                     
                                                                                                  
 block2b_project_conv (Conv  (None, 56, 56, 64)           16384     ['block2b_expand_activation[0]
 2D)                                                                [0]']                         
                                                                                                  
 block2b_project_bn (BatchN  (None, 56, 56, 64)           256       ['block2b_project_conv[0][0]']
 ormalization)                                                                                    
                                                                                                  
 block2b_drop (Dropout)      (None, 56, 56, 64)           0         ['block2b_project_bn[0][0]']  
                                                                                                  
 block2b_add (Add)           (None, 56, 56, 64)           0         ['block2b_drop[0][0]',        
                                                                     'block2a_project_bn[0][0]']  
                                                                                                  
 block2c_expand_conv (Conv2  (None, 56, 56, 256)          147456    ['block2b_add[0][0]']         
 D)                                                                                               
                                                                                                  
 block2c_expand_bn (BatchNo  (None, 56, 56, 256)          1024      ['block2c_expand_conv[0][0]'] 
 rmalization)                                                                                     
                                                                                                  
 block2c_expand_activation   (None, 56, 56, 256)          0         ['block2c_expand_bn[0][0]']   
 (Activation)                                                                                     
                                                                                                  
 block2c_project_conv (Conv  (None, 56, 56, 64)           16384     ['block2c_expand_activation[0]
 2D)                                                                [0]']                         
                                                                                                  
 block2c_project_bn (BatchN  (None, 56, 56, 64)           256       ['block2c_project_conv[0][0]']
 ormalization)                                                                                    
                                                                                                  
 block2c_drop (Dropout)      (None, 56, 56, 64)           0         ['block2c_project_bn[0][0]']  
                                                                                                  
 block2c_add (Add)           (None, 56, 56, 64)           0         ['block2c_drop[0][0]',        
                                                                     'block2b_add[0][0]']         
                                                                                                  
 block2d_expand_conv (Conv2  (None, 56, 56, 256)          147456    ['block2c_add[0][0]']         
 D)                                                                                               
                                                                                                  
 block2d_expand_bn (BatchNo  (None, 56, 56, 256)          1024      ['block2d_expand_conv[0][0]'] 
 rmalization)                                                                                     
                                                                                                  
 block2d_expand_activation   (None, 56, 56, 256)          0         ['block2d_expand_bn[0][0]']   
 (Activation)                                                                                     
                                                                                                  
 block2d_project_conv (Conv  (None, 56, 56, 64)           16384     ['block2d_expand_activation[0]
 2D)                                                                [0]']                         
                                                                                                  
 block2d_project_bn (BatchN  (None, 56, 56, 64)           256       ['block2d_project_conv[0][0]']
 ormalization)                                                                                    
                                                                                                  
 block2d_drop (Dropout)      (None, 56, 56, 64)           0         ['block2d_project_bn[0][0]']  
                                                                                                  
 block2d_add (Add)           (None, 56, 56, 64)           0         ['block2d_drop[0][0]',        
                                                                     'block2c_add[0][0]']         
                                                                                                  
 block2e_expand_conv (Conv2  (None, 56, 56, 256)          147456    ['block2d_add[0][0]']         
 D)                                                                                               
                                                                                                  
 block2e_expand_bn (BatchNo  (None, 56, 56, 256)          1024      ['block2e_expand_conv[0][0]'] 
 rmalization)                                                                                     
                                                                                                  
 block2e_expand_activation   (None, 56, 56, 256)          0         ['block2e_expand_bn[0][0]']   
 (Activation)                                                                                     
                                                                                                  
 block2e_project_conv (Conv  (None, 56, 56, 64)           16384     ['block2e_expand_activation[0]
 2D)                                                                [0]']                         
                                                                                                  
 block2e_project_bn (BatchN  (None, 56, 56, 64)           256       ['block2e_project_conv[0][0]']
 ormalization)                                                                                    
                                                                                                  
 block2e_drop (Dropout)      (None, 56, 56, 64)           0         ['block2e_project_bn[0][0]']  
                                                                                                  
 block2e_add (Add)           (None, 56, 56, 64)           0         ['block2e_drop[0][0]',        
                                                                     'block2d_add[0][0]']         
                                                                                                  
 block2f_expand_conv (Conv2  (None, 56, 56, 256)          147456    ['block2e_add[0][0]']         
 D)                                                                                               
                                                                                                  
 block2f_expand_bn (BatchNo  (None, 56, 56, 256)          1024      ['block2f_expand_conv[0][0]'] 
 rmalization)                                                                                     
                                                                                                  
 block2f_expand_activation   (None, 56, 56, 256)          0         ['block2f_expand_bn[0][0]']   
 (Activation)                                                                                     
                                                                                                  
 block2f_project_conv (Conv  (None, 56, 56, 64)           16384     ['block2f_expand_activation[0]
 2D)                                                                [0]']                         
                                                                                                  
 block2f_project_bn (BatchN  (None, 56, 56, 64)           256       ['block2f_project_conv[0][0]']
 ormalization)                                                                                    
                                                                                                  
 block2f_drop (Dropout)      (None, 56, 56, 64)           0         ['block2f_project_bn[0][0]']  
                                                                                                  
 block2f_add (Add)           (None, 56, 56, 64)           0         ['block2f_drop[0][0]',        
                                                                     'block2e_add[0][0]']         
                                                                                                  
 block2g_expand_conv (Conv2  (None, 56, 56, 256)          147456    ['block2f_add[0][0]']         
 D)                                                                                               
                                                                                                  
 block2g_expand_bn (BatchNo  (None, 56, 56, 256)          1024      ['block2g_expand_conv[0][0]'] 
 rmalization)                                                                                     
                                                                                                  
 block2g_expand_activation   (None, 56, 56, 256)          0         ['block2g_expand_bn[0][0]']   
 (Activation)                                                                                     
                                                                                                  
 block2g_project_conv (Conv  (None, 56, 56, 64)           16384     ['block2g_expand_activation[0]
 2D)                                                                [0]']                         
                                                                                                  
 block2g_project_bn (BatchN  (None, 56, 56, 64)           256       ['block2g_project_conv[0][0]']
 ormalization)                                                                                    
                                                                                                  
 block2g_drop (Dropout)      (None, 56, 56, 64)           0         ['block2g_project_bn[0][0]']  
                                                                                                  
 block2g_add (Add)           (None, 56, 56, 64)           0         ['block2g_drop[0][0]',        
                                                                     'block2f_add[0][0]']         
                                                                                                  
 block3a_expand_conv (Conv2  (None, 28, 28, 256)          147456    ['block2g_add[0][0]']         
 D)                                                                                               
                                                                                                  
 block3a_expand_bn (BatchNo  (None, 28, 28, 256)          1024      ['block3a_expand_conv[0][0]'] 
 rmalization)                                                                                     
                                                                                                  
 block3a_expand_activation   (None, 28, 28, 256)          0         ['block3a_expand_bn[0][0]']   
 (Activation)                                                                                     
                                                                                                  
 block3a_project_conv (Conv  (None, 28, 28, 96)           24576     ['block3a_expand_activation[0]
 2D)                                                                [0]']                         
                                                                                                  
 block3a_project_bn (BatchN  (None, 28, 28, 96)           384       ['block3a_project_conv[0][0]']
 ormalization)                                                                                    
                                                                                                  
 block3b_expand_conv (Conv2  (None, 28, 28, 384)          331776    ['block3a_project_bn[0][0]']  
 D)                                                                                               
                                                                                                  
 block3b_expand_bn (BatchNo  (None, 28, 28, 384)          1536      ['block3b_expand_conv[0][0]'] 
 rmalization)                                                                                     
                                                                                                  
 block3b_expand_activation   (None, 28, 28, 384)          0         ['block3b_expand_bn[0][0]']   
 (Activation)                                                                                     
                                                                                                  
 block3b_project_conv (Conv  (None, 28, 28, 96)           36864     ['block3b_expand_activation[0]
 2D)                                                                [0]']                         
                                                                                                  
 block3b_project_bn (BatchN  (None, 28, 28, 96)           384       ['block3b_project_conv[0][0]']
 ormalization)                                                                                    
                                                                                                  
 block3b_drop (Dropout)      (None, 28, 28, 96)           0         ['block3b_project_bn[0][0]']  
                                                                                                  
 block3b_add (Add)           (None, 28, 28, 96)           0         ['block3b_drop[0][0]',        
                                                                     'block3a_project_bn[0][0]']  
                                                                                                  
 block3c_expand_conv (Conv2  (None, 28, 28, 384)          331776    ['block3b_add[0][0]']         
 D)                                                                                               
                                                                                                  
 block3c_expand_bn (BatchNo  (None, 28, 28, 384)          1536      ['block3c_expand_conv[0][0]'] 
 rmalization)                                                                                     
                                                                                                  
 block3c_expand_activation   (None, 28, 28, 384)          0         ['block3c_expand_bn[0][0]']   
 (Activation)                                                                                     
                                                                                                  
 block3c_project_conv (Conv  (None, 28, 28, 96)           36864     ['block3c_expand_activation[0]
 2D)                                                                [0]']                         
                                                                                                  
 block3c_project_bn (BatchN  (None, 28, 28, 96)           384       ['block3c_project_conv[0][0]']
 ormalization)                                                                                    
                                                                                                  
 block3c_drop (Dropout)      (None, 28, 28, 96)           0         ['block3c_project_bn[0][0]']  
                                                                                                  
 block3c_add (Add)           (None, 28, 28, 96)           0         ['block3c_drop[0][0]',        
                                                                     'block3b_add[0][0]']         
                                                                                                  
 block3d_expand_conv (Conv2  (None, 28, 28, 384)          331776    ['block3c_add[0][0]']         
 D)                                                                                               
                                                                                                  
 block3d_expand_bn (BatchNo  (None, 28, 28, 384)          1536      ['block3d_expand_conv[0][0]'] 
 rmalization)                                                                                     
                                                                                                  
 block3d_expand_activation   (None, 28, 28, 384)          0         ['block3d_expand_bn[0][0]']   
 (Activation)                                                                                     
                                                                                                  
 block3d_project_conv (Conv  (None, 28, 28, 96)           36864     ['block3d_expand_activation[0]
 2D)                                                                [0]']                         
                                                                                                  
 block3d_project_bn (BatchN  (None, 28, 28, 96)           384       ['block3d_project_conv[0][0]']
 ormalization)                                                                                    
                                                                                                  
 block3d_drop (Dropout)      (None, 28, 28, 96)           0         ['block3d_project_bn[0][0]']  
                                                                                                  
 block3d_add (Add)           (None, 28, 28, 96)           0         ['block3d_drop[0][0]',        
                                                                     'block3c_add[0][0]']         
                                                                                                  
 block3e_expand_conv (Conv2  (None, 28, 28, 384)          331776    ['block3d_add[0][0]']         
 D)                                                                                               
                                                                                                  
 block3e_expand_bn (BatchNo  (None, 28, 28, 384)          1536      ['block3e_expand_conv[0][0]'] 
 rmalization)                                                                                     
                                                                                                  
 block3e_expand_activation   (None, 28, 28, 384)          0         ['block3e_expand_bn[0][0]']   
 (Activation)                                                                                     
                                                                                                  
 block3e_project_conv (Conv  (None, 28, 28, 96)           36864     ['block3e_expand_activation[0]
 2D)                                                                [0]']                         
                                                                                                  
 block3e_project_bn (BatchN  (None, 28, 28, 96)           384       ['block3e_project_conv[0][0]']
 ormalization)                                                                                    
                                                                                                  
 block3e_drop (Dropout)      (None, 28, 28, 96)           0         ['block3e_project_bn[0][0]']  
                                                                                                  
 block3e_add (Add)           (None, 28, 28, 96)           0         ['block3e_drop[0][0]',        
                                                                     'block3d_add[0][0]']         
                                                                                                  
 block3f_expand_conv (Conv2  (None, 28, 28, 384)          331776    ['block3e_add[0][0]']         
 D)                                                                                               
                                                                                                  
 block3f_expand_bn (BatchNo  (None, 28, 28, 384)          1536      ['block3f_expand_conv[0][0]'] 
 rmalization)                                                                                     
                                                                                                  
 block3f_expand_activation   (None, 28, 28, 384)          0         ['block3f_expand_bn[0][0]']   
 (Activation)                                                                                     
                                                                                                  
 block3f_project_conv (Conv  (None, 28, 28, 96)           36864     ['block3f_expand_activation[0]
 2D)                                                                [0]']                         
                                                                                                  
 block3f_project_bn (BatchN  (None, 28, 28, 96)           384       ['block3f_project_conv[0][0]']
 ormalization)                                                                                    
                                                                                                  
 block3f_drop (Dropout)      (None, 28, 28, 96)           0         ['block3f_project_bn[0][0]']  
                                                                                                  
 block3f_add (Add)           (None, 28, 28, 96)           0         ['block3f_drop[0][0]',        
                                                                     'block3e_add[0][0]']         
                                                                                                  
 block3g_expand_conv (Conv2  (None, 28, 28, 384)          331776    ['block3f_add[0][0]']         
 D)                                                                                               
                                                                                                  
 block3g_expand_bn (BatchNo  (None, 28, 28, 384)          1536      ['block3g_expand_conv[0][0]'] 
 rmalization)                                                                                     
                                                                                                  
 block3g_expand_activation   (None, 28, 28, 384)          0         ['block3g_expand_bn[0][0]']   
 (Activation)                                                                                     
                                                                                                  
 block3g_project_conv (Conv  (None, 28, 28, 96)           36864     ['block3g_expand_activation[0]
 2D)                                                                [0]']                         
                                                                                                  
 block3g_project_bn (BatchN  (None, 28, 28, 96)           384       ['block3g_project_conv[0][0]']
 ormalization)                                                                                    
                                                                                                  
 block3g_drop (Dropout)      (None, 28, 28, 96)           0         ['block3g_project_bn[0][0]']  
                                                                                                  
 block3g_add (Add)           (None, 28, 28, 96)           0         ['block3g_drop[0][0]',        
                                                                     'block3f_add[0][0]']         
                                                                                                  
 block4a_expand_conv (Conv2  (None, 28, 28, 384)          36864     ['block3g_add[0][0]']         
 D)                                                                                               
                                                                                                  
 block4a_expand_bn (BatchNo  (None, 28, 28, 384)          1536      ['block4a_expand_conv[0][0]'] 
 rmalization)                                                                                     
                                                                                                  
 block4a_expand_activation   (None, 28, 28, 384)          0         ['block4a_expand_bn[0][0]']   
 (Activation)                                                                                     
                                                                                                  
 block4a_dwconv2 (Depthwise  (None, 14, 14, 384)          3456      ['block4a_expand_activation[0]
 Conv2D)                                                            [0]']                         
                                                                                                  
 block4a_bn (BatchNormaliza  (None, 14, 14, 384)          1536      ['block4a_dwconv2[0][0]']     
 tion)                                                                                            
                                                                                                  
 block4a_activation (Activa  (None, 14, 14, 384)          0         ['block4a_bn[0][0]']          
 tion)                                                                                            
                                                                                                  
 block4a_se_squeeze (Global  (None, 384)                  0         ['block4a_activation[0][0]']  
 AveragePooling2D)                                                                                
                                                                                                  
 block4a_se_reshape (Reshap  (None, 1, 1, 384)            0         ['block4a_se_squeeze[0][0]']  
 e)                                                                                               
                                                                                                  
 block4a_se_reduce (Conv2D)  (None, 1, 1, 24)             9240      ['block4a_se_reshape[0][0]']  
                                                                                                  
 block4a_se_expand (Conv2D)  (None, 1, 1, 384)            9600      ['block4a_se_reduce[0][0]']   
                                                                                                  
 block4a_se_excite (Multipl  (None, 14, 14, 384)          0         ['block4a_activation[0][0]',  
 y)                                                                  'block4a_se_expand[0][0]']   
                                                                                                  
 block4a_project_conv (Conv  (None, 14, 14, 192)          73728     ['block4a_se_excite[0][0]']   
 2D)                                                                                              
                                                                                                  
 block4a_project_bn (BatchN  (None, 14, 14, 192)          768       ['block4a_project_conv[0][0]']
 ormalization)                                                                                    
                                                                                                  
 block4b_expand_conv (Conv2  (None, 14, 14, 768)          147456    ['block4a_project_bn[0][0]']  
 D)                                                                                               
                                                                                                  
 block4b_expand_bn (BatchNo  (None, 14, 14, 768)          3072      ['block4b_expand_conv[0][0]'] 
 rmalization)                                                                                     
                                                                                                  
 block4b_expand_activation   (None, 14, 14, 768)          0         ['block4b_expand_bn[0][0]']   
 (Activation)                                                                                     
                                                                                                  
 block4b_dwconv2 (Depthwise  (None, 14, 14, 768)          6912      ['block4b_expand_activation[0]
 Conv2D)                                                            [0]']                         
                                                                                                  
 block4b_bn (BatchNormaliza  (None, 14, 14, 768)          3072      ['block4b_dwconv2[0][0]']     
 tion)                                                                                            
                                                                                                  
 block4b_activation (Activa  (None, 14, 14, 768)          0         ['block4b_bn[0][0]']          
 tion)                                                                                            
                                                                                                  
 block4b_se_squeeze (Global  (None, 768)                  0         ['block4b_activation[0][0]']  
 AveragePooling2D)                                                                                
                                                                                                  
 block4b_se_reshape (Reshap  (None, 1, 1, 768)            0         ['block4b_se_squeeze[0][0]']  
 e)                                                                                               
                                                                                                  
 block4b_se_reduce (Conv2D)  (None, 1, 1, 48)             36912     ['block4b_se_reshape[0][0]']  
                                                                                                  
 block4b_se_expand (Conv2D)  (None, 1, 1, 768)            37632     ['block4b_se_reduce[0][0]']   
                                                                                                  
 block4b_se_excite (Multipl  (None, 14, 14, 768)          0         ['block4b_activation[0][0]',  
 y)                                                                  'block4b_se_expand[0][0]']   
                                                                                                  
 block4b_project_conv (Conv  (None, 14, 14, 192)          147456    ['block4b_se_excite[0][0]']   
 2D)                                                                                              
                                                                                                  
 block4b_project_bn (BatchN  (None, 14, 14, 192)          768       ['block4b_project_conv[0][0]']
 ormalization)                                                                                    
                                                                                                  
 block4b_drop (Dropout)      (None, 14, 14, 192)          0         ['block4b_project_bn[0][0]']  
                                                                                                  
 block4b_add (Add)           (None, 14, 14, 192)          0         ['block4b_drop[0][0]',        
                                                                     'block4a_project_bn[0][0]']  
                                                                                                  
 block4c_expand_conv (Conv2  (None, 14, 14, 768)          147456    ['block4b_add[0][0]']         
 D)                                                                                               
                                                                                                  
 block4c_expand_bn (BatchNo  (None, 14, 14, 768)          3072      ['block4c_expand_conv[0][0]'] 
 rmalization)                                                                                     
                                                                                                  
 block4c_expand_activation   (None, 14, 14, 768)          0         ['block4c_expand_bn[0][0]']   
 (Activation)                                                                                     
                                                                                                  
 block4c_dwconv2 (Depthwise  (None, 14, 14, 768)          6912      ['block4c_expand_activation[0]
 Conv2D)                                                            [0]']                         
                                                                                                  
 block4c_bn (BatchNormaliza  (None, 14, 14, 768)          3072      ['block4c_dwconv2[0][0]']     
 tion)                                                                                            
                                                                                                  
 block4c_activation (Activa  (None, 14, 14, 768)          0         ['block4c_bn[0][0]']          
 tion)                                                                                            
                                                                                                  
 block4c_se_squeeze (Global  (None, 768)                  0         ['block4c_activation[0][0]']  
 AveragePooling2D)                                                                                
                                                                                                  
 block4c_se_reshape (Reshap  (None, 1, 1, 768)            0         ['block4c_se_squeeze[0][0]']  
 e)                                                                                               
                                                                                                  
 block4c_se_reduce (Conv2D)  (None, 1, 1, 48)             36912     ['block4c_se_reshape[0][0]']  
                                                                                                  
 block4c_se_expand (Conv2D)  (None, 1, 1, 768)            37632     ['block4c_se_reduce[0][0]']   
                                                                                                  
 block4c_se_excite (Multipl  (None, 14, 14, 768)          0         ['block4c_activation[0][0]',  
 y)                                                                  'block4c_se_expand[0][0]']   
                                                                                                  
 block4c_project_conv (Conv  (None, 14, 14, 192)          147456    ['block4c_se_excite[0][0]']   
 2D)                                                                                              
                                                                                                  
 block4c_project_bn (BatchN  (None, 14, 14, 192)          768       ['block4c_project_conv[0][0]']
 ormalization)                                                                                    
                                                                                                  
 block4c_drop (Dropout)      (None, 14, 14, 192)          0         ['block4c_project_bn[0][0]']  
                                                                                                  
 block4c_add (Add)           (None, 14, 14, 192)          0         ['block4c_drop[0][0]',        
                                                                     'block4b_add[0][0]']         
                                                                                                  
 block4d_expand_conv (Conv2  (None, 14, 14, 768)          147456    ['block4c_add[0][0]']         
 D)                                                                                               
                                                                                                  
 block4d_expand_bn (BatchNo  (None, 14, 14, 768)          3072      ['block4d_expand_conv[0][0]'] 
 rmalization)                                                                                     
                                                                                                  
 block4d_expand_activation   (None, 14, 14, 768)          0         ['block4d_expand_bn[0][0]']   
 (Activation)                                                                                     
                                                                                                  
 block4d_dwconv2 (Depthwise  (None, 14, 14, 768)          6912      ['block4d_expand_activation[0]
 Conv2D)                                                            [0]']                         
                                                                                                  
 block4d_bn (BatchNormaliza  (None, 14, 14, 768)          3072      ['block4d_dwconv2[0][0]']     
 tion)                                                                                            
                                                                                                  
 block4d_activation (Activa  (None, 14, 14, 768)          0         ['block4d_bn[0][0]']          
 tion)                                                                                            
                                                                                                  
 block4d_se_squeeze (Global  (None, 768)                  0         ['block4d_activation[0][0]']  
 AveragePooling2D)                                                                                
                                                                                                  
 block4d_se_reshape (Reshap  (None, 1, 1, 768)            0         ['block4d_se_squeeze[0][0]']  
 e)                                                                                               
                                                                                                  
 block4d_se_reduce (Conv2D)  (None, 1, 1, 48)             36912     ['block4d_se_reshape[0][0]']  
                                                                                                  
 block4d_se_expand (Conv2D)  (None, 1, 1, 768)            37632     ['block4d_se_reduce[0][0]']   
                                                                                                  
 block4d_se_excite (Multipl  (None, 14, 14, 768)          0         ['block4d_activation[0][0]',  
 y)                                                                  'block4d_se_expand[0][0]']   
                                                                                                  
 block4d_project_conv (Conv  (None, 14, 14, 192)          147456    ['block4d_se_excite[0][0]']   
 2D)                                                                                              
                                                                                                  
 block4d_project_bn (BatchN  (None, 14, 14, 192)          768       ['block4d_project_conv[0][0]']
 ormalization)                                                                                    
                                                                                                  
 block4d_drop (Dropout)      (None, 14, 14, 192)          0         ['block4d_project_bn[0][0]']  
                                                                                                  
 block4d_add (Add)           (None, 14, 14, 192)          0         ['block4d_drop[0][0]',        
                                                                     'block4c_add[0][0]']         
                                                                                                  
 block4e_expand_conv (Conv2  (None, 14, 14, 768)          147456    ['block4d_add[0][0]']         
 D)                                                                                               
                                                                                                  
 block4e_expand_bn (BatchNo  (None, 14, 14, 768)          3072      ['block4e_expand_conv[0][0]'] 
 rmalization)                                                                                     
                                                                                                  
 block4e_expand_activation   (None, 14, 14, 768)          0         ['block4e_expand_bn[0][0]']   
 (Activation)                                                                                     
                                                                                                  
 block4e_dwconv2 (Depthwise  (None, 14, 14, 768)          6912      ['block4e_expand_activation[0]
 Conv2D)                                                            [0]']                         
                                                                                                  
 block4e_bn (BatchNormaliza  (None, 14, 14, 768)          3072      ['block4e_dwconv2[0][0]']     
 tion)                                                                                            
                                                                                                  
 block4e_activation (Activa  (None, 14, 14, 768)          0         ['block4e_bn[0][0]']          
 tion)                                                                                            
                                                                                                  
 block4e_se_squeeze (Global  (None, 768)                  0         ['block4e_activation[0][0]']  
 AveragePooling2D)                                                                                
                                                                                                  
 block4e_se_reshape (Reshap  (None, 1, 1, 768)            0         ['block4e_se_squeeze[0][0]']  
 e)                                                                                               
                                                                                                  
 block4e_se_reduce (Conv2D)  (None, 1, 1, 48)             36912     ['block4e_se_reshape[0][0]']  
                                                                                                  
 block4e_se_expand (Conv2D)  (None, 1, 1, 768)            37632     ['block4e_se_reduce[0][0]']   
                                                                                                  
 block4e_se_excite (Multipl  (None, 14, 14, 768)          0         ['block4e_activation[0][0]',  
 y)                                                                  'block4e_se_expand[0][0]']   
                                                                                                  
 block4e_project_conv (Conv  (None, 14, 14, 192)          147456    ['block4e_se_excite[0][0]']   
 2D)                                                                                              
                                                                                                  
 block4e_project_bn (BatchN  (None, 14, 14, 192)          768       ['block4e_project_conv[0][0]']
 ormalization)                                                                                    
                                                                                                  
 block4e_drop (Dropout)      (None, 14, 14, 192)          0         ['block4e_project_bn[0][0]']  
                                                                                                  
 block4e_add (Add)           (None, 14, 14, 192)          0         ['block4e_drop[0][0]',        
                                                                     'block4d_add[0][0]']         
                                                                                                  
 block4f_expand_conv (Conv2  (None, 14, 14, 768)          147456    ['block4e_add[0][0]']         
 D)                                                                                               
                                                                                                  
 block4f_expand_bn (BatchNo  (None, 14, 14, 768)          3072      ['block4f_expand_conv[0][0]'] 
 rmalization)                                                                                     
                                                                                                  
 block4f_expand_activation   (None, 14, 14, 768)          0         ['block4f_expand_bn[0][0]']   
 (Activation)                                                                                     
                                                                                                  
 block4f_dwconv2 (Depthwise  (None, 14, 14, 768)          6912      ['block4f_expand_activation[0]
 Conv2D)                                                            [0]']                         
                                                                                                  
 block4f_bn (BatchNormaliza  (None, 14, 14, 768)          3072      ['block4f_dwconv2[0][0]']     
 tion)                                                                                            
                                                                                                  
 block4f_activation (Activa  (None, 14, 14, 768)          0         ['block4f_bn[0][0]']          
 tion)                                                                                            
                                                                                                  
 block4f_se_squeeze (Global  (None, 768)                  0         ['block4f_activation[0][0]']  
 AveragePooling2D)                                                                                
                                                                                                  
 block4f_se_reshape (Reshap  (None, 1, 1, 768)            0         ['block4f_se_squeeze[0][0]']  
 e)                                                                                               
                                                                                                  
 block4f_se_reduce (Conv2D)  (None, 1, 1, 48)             36912     ['block4f_se_reshape[0][0]']  
                                                                                                  
 block4f_se_expand (Conv2D)  (None, 1, 1, 768)            37632     ['block4f_se_reduce[0][0]']   
                                                                                                  
 block4f_se_excite (Multipl  (None, 14, 14, 768)          0         ['block4f_activation[0][0]',  
 y)                                                                  'block4f_se_expand[0][0]']   
                                                                                                  
 block4f_project_conv (Conv  (None, 14, 14, 192)          147456    ['block4f_se_excite[0][0]']   
 2D)                                                                                              
                                                                                                  
 block4f_project_bn (BatchN  (None, 14, 14, 192)          768       ['block4f_project_conv[0][0]']
 ormalization)                                                                                    
                                                                                                  
 block4f_drop (Dropout)      (None, 14, 14, 192)          0         ['block4f_project_bn[0][0]']  
                                                                                                  
 block4f_add (Add)           (None, 14, 14, 192)          0         ['block4f_drop[0][0]',        
                                                                     'block4e_add[0][0]']         
                                                                                                  
 block4g_expand_conv (Conv2  (None, 14, 14, 768)          147456    ['block4f_add[0][0]']         
 D)                                                                                               
                                                                                                  
 block4g_expand_bn (BatchNo  (None, 14, 14, 768)          3072      ['block4g_expand_conv[0][0]'] 
 rmalization)                                                                                     
                                                                                                  
 block4g_expand_activation   (None, 14, 14, 768)          0         ['block4g_expand_bn[0][0]']   
 (Activation)                                                                                     
                                                                                                  
 block4g_dwconv2 (Depthwise  (None, 14, 14, 768)          6912      ['block4g_expand_activation[0]
 Conv2D)                                                            [0]']                         
                                                                                                  
 block4g_bn (BatchNormaliza  (None, 14, 14, 768)          3072      ['block4g_dwconv2[0][0]']     
 tion)                                                                                            
                                                                                                  
 block4g_activation (Activa  (None, 14, 14, 768)          0         ['block4g_bn[0][0]']          
 tion)                                                                                            
                                                                                                  
 block4g_se_squeeze (Global  (None, 768)                  0         ['block4g_activation[0][0]']  
 AveragePooling2D)                                                                                
                                                                                                  
 block4g_se_reshape (Reshap  (None, 1, 1, 768)            0         ['block4g_se_squeeze[0][0]']  
 e)                                                                                               
                                                                                                  
 block4g_se_reduce (Conv2D)  (None, 1, 1, 48)             36912     ['block4g_se_reshape[0][0]']  
                                                                                                  
 block4g_se_expand (Conv2D)  (None, 1, 1, 768)            37632     ['block4g_se_reduce[0][0]']   
                                                                                                  
 block4g_se_excite (Multipl  (None, 14, 14, 768)          0         ['block4g_activation[0][0]',  
 y)                                                                  'block4g_se_expand[0][0]']   
                                                                                                  
 block4g_project_conv (Conv  (None, 14, 14, 192)          147456    ['block4g_se_excite[0][0]']   
 2D)                                                                                              
                                                                                                  
 block4g_project_bn (BatchN  (None, 14, 14, 192)          768       ['block4g_project_conv[0][0]']
 ormalization)                                                                                    
                                                                                                  
 block4g_drop (Dropout)      (None, 14, 14, 192)          0         ['block4g_project_bn[0][0]']  
                                                                                                  
 block4g_add (Add)           (None, 14, 14, 192)          0         ['block4g_drop[0][0]',        
                                                                     'block4f_add[0][0]']         
                                                                                                  
 block4h_expand_conv (Conv2  (None, 14, 14, 768)          147456    ['block4g_add[0][0]']         
 D)                                                                                               
                                                                                                  
 block4h_expand_bn (BatchNo  (None, 14, 14, 768)          3072      ['block4h_expand_conv[0][0]'] 
 rmalization)                                                                                     
                                                                                                  
 block4h_expand_activation   (None, 14, 14, 768)          0         ['block4h_expand_bn[0][0]']   
 (Activation)                                                                                     
                                                                                                  
 block4h_dwconv2 (Depthwise  (None, 14, 14, 768)          6912      ['block4h_expand_activation[0]
 Conv2D)                                                            [0]']                         
                                                                                                  
 block4h_bn (BatchNormaliza  (None, 14, 14, 768)          3072      ['block4h_dwconv2[0][0]']     
 tion)                                                                                            
                                                                                                  
 block4h_activation (Activa  (None, 14, 14, 768)          0         ['block4h_bn[0][0]']          
 tion)                                                                                            
                                                                                                  
 block4h_se_squeeze (Global  (None, 768)                  0         ['block4h_activation[0][0]']  
 AveragePooling2D)                                                                                
                                                                                                  
 block4h_se_reshape (Reshap  (None, 1, 1, 768)            0         ['block4h_se_squeeze[0][0]']  
 e)                                                                                               
                                                                                                  
 block4h_se_reduce (Conv2D)  (None, 1, 1, 48)             36912     ['block4h_se_reshape[0][0]']  
                                                                                                  
 block4h_se_expand (Conv2D)  (None, 1, 1, 768)            37632     ['block4h_se_reduce[0][0]']   
                                                                                                  
 block4h_se_excite (Multipl  (None, 14, 14, 768)          0         ['block4h_activation[0][0]',  
 y)                                                                  'block4h_se_expand[0][0]']   
                                                                                                  
 block4h_project_conv (Conv  (None, 14, 14, 192)          147456    ['block4h_se_excite[0][0]']   
 2D)                                                                                              
                                                                                                  
 block4h_project_bn (BatchN  (None, 14, 14, 192)          768       ['block4h_project_conv[0][0]']
 ormalization)                                                                                    
                                                                                                  
 block4h_drop (Dropout)      (None, 14, 14, 192)          0         ['block4h_project_bn[0][0]']  
                                                                                                  
 block4h_add (Add)           (None, 14, 14, 192)          0         ['block4h_drop[0][0]',        
                                                                     'block4g_add[0][0]']         
                                                                                                  
 block4i_expand_conv (Conv2  (None, 14, 14, 768)          147456    ['block4h_add[0][0]']         
 D)                                                                                               
                                                                                                  
 block4i_expand_bn (BatchNo  (None, 14, 14, 768)          3072      ['block4i_expand_conv[0][0]'] 
 rmalization)                                                                                     
                                                                                                  
 block4i_expand_activation   (None, 14, 14, 768)          0         ['block4i_expand_bn[0][0]']   
 (Activation)                                                                                     
                                                                                                  
 block4i_dwconv2 (Depthwise  (None, 14, 14, 768)          6912      ['block4i_expand_activation[0]
 Conv2D)                                                            [0]']                         
                                                                                                  
 block4i_bn (BatchNormaliza  (None, 14, 14, 768)          3072      ['block4i_dwconv2[0][0]']     
 tion)                                                                                            
                                                                                                  
 block4i_activation (Activa  (None, 14, 14, 768)          0         ['block4i_bn[0][0]']          
 tion)                                                                                            
                                                                                                  
 block4i_se_squeeze (Global  (None, 768)                  0         ['block4i_activation[0][0]']  
 AveragePooling2D)                                                                                
                                                                                                  
 block4i_se_reshape (Reshap  (None, 1, 1, 768)            0         ['block4i_se_squeeze[0][0]']  
 e)                                                                                               
                                                                                                  
 block4i_se_reduce (Conv2D)  (None, 1, 1, 48)             36912     ['block4i_se_reshape[0][0]']  
                                                                                                  
 block4i_se_expand (Conv2D)  (None, 1, 1, 768)            37632     ['block4i_se_reduce[0][0]']   
                                                                                                  
 block4i_se_excite (Multipl  (None, 14, 14, 768)          0         ['block4i_activation[0][0]',  
 y)                                                                  'block4i_se_expand[0][0]']   
                                                                                                  
 block4i_project_conv (Conv  (None, 14, 14, 192)          147456    ['block4i_se_excite[0][0]']   
 2D)                                                                                              
                                                                                                  
 block4i_project_bn (BatchN  (None, 14, 14, 192)          768       ['block4i_project_conv[0][0]']
 ormalization)                                                                                    
                                                                                                  
 block4i_drop (Dropout)      (None, 14, 14, 192)          0         ['block4i_project_bn[0][0]']  
                                                                                                  
 block4i_add (Add)           (None, 14, 14, 192)          0         ['block4i_drop[0][0]',        
                                                                     'block4h_add[0][0]']         
                                                                                                  
 block4j_expand_conv (Conv2  (None, 14, 14, 768)          147456    ['block4i_add[0][0]']         
 D)                                                                                               
                                                                                                  
 block4j_expand_bn (BatchNo  (None, 14, 14, 768)          3072      ['block4j_expand_conv[0][0]'] 
 rmalization)                                                                                     
                                                                                                  
 block4j_expand_activation   (None, 14, 14, 768)          0         ['block4j_expand_bn[0][0]']   
 (Activation)                                                                                     
                                                                                                  
 block4j_dwconv2 (Depthwise  (None, 14, 14, 768)          6912      ['block4j_expand_activation[0]
 Conv2D)                                                            [0]']                         
                                                                                                  
 block4j_bn (BatchNormaliza  (None, 14, 14, 768)          3072      ['block4j_dwconv2[0][0]']     
 tion)                                                                                            
                                                                                                  
 block4j_activation (Activa  (None, 14, 14, 768)          0         ['block4j_bn[0][0]']          
 tion)                                                                                            
                                                                                                  
 block4j_se_squeeze (Global  (None, 768)                  0         ['block4j_activation[0][0]']  
 AveragePooling2D)                                                                                
                                                                                                  
 block4j_se_reshape (Reshap  (None, 1, 1, 768)            0         ['block4j_se_squeeze[0][0]']  
 e)                                                                                               
                                                                                                  
 block4j_se_reduce (Conv2D)  (None, 1, 1, 48)             36912     ['block4j_se_reshape[0][0]']  
                                                                                                  
 block4j_se_expand (Conv2D)  (None, 1, 1, 768)            37632     ['block4j_se_reduce[0][0]']   
                                                                                                  
 block4j_se_excite (Multipl  (None, 14, 14, 768)          0         ['block4j_activation[0][0]',  
 y)                                                                  'block4j_se_expand[0][0]']   
                                                                                                  
 block4j_project_conv (Conv  (None, 14, 14, 192)          147456    ['block4j_se_excite[0][0]']   
 2D)                                                                                              
                                                                                                  
 block4j_project_bn (BatchN  (None, 14, 14, 192)          768       ['block4j_project_conv[0][0]']
 ormalization)                                                                                    
                                                                                                  
 block4j_drop (Dropout)      (None, 14, 14, 192)          0         ['block4j_project_bn[0][0]']  
                                                                                                  
 block4j_add (Add)           (None, 14, 14, 192)          0         ['block4j_drop[0][0]',        
                                                                     'block4i_add[0][0]']         
                                                                                                  
 block5a_expand_conv (Conv2  (None, 14, 14, 1152)         221184    ['block4j_add[0][0]']         
 D)                                                                                               
                                                                                                  
 block5a_expand_bn (BatchNo  (None, 14, 14, 1152)         4608      ['block5a_expand_conv[0][0]'] 
 rmalization)                                                                                     
                                                                                                  
 block5a_expand_activation   (None, 14, 14, 1152)         0         ['block5a_expand_bn[0][0]']   
 (Activation)                                                                                     
                                                                                                  
 block5a_dwconv2 (Depthwise  (None, 14, 14, 1152)         10368     ['block5a_expand_activation[0]
 Conv2D)                                                            [0]']                         
                                                                                                  
 block5a_bn (BatchNormaliza  (None, 14, 14, 1152)         4608      ['block5a_dwconv2[0][0]']     
 tion)                                                                                            
                                                                                                  
 block5a_activation (Activa  (None, 14, 14, 1152)         0         ['block5a_bn[0][0]']          
 tion)                                                                                            
                                                                                                  
 block5a_se_squeeze (Global  (None, 1152)                 0         ['block5a_activation[0][0]']  
 AveragePooling2D)                                                                                
                                                                                                  
 block5a_se_reshape (Reshap  (None, 1, 1, 1152)           0         ['block5a_se_squeeze[0][0]']  
 e)                                                                                               
                                                                                                  
 block5a_se_reduce (Conv2D)  (None, 1, 1, 48)             55344     ['block5a_se_reshape[0][0]']  
                                                                                                  
 block5a_se_expand (Conv2D)  (None, 1, 1, 1152)           56448     ['block5a_se_reduce[0][0]']   
                                                                                                  
 block5a_se_excite (Multipl  (None, 14, 14, 1152)         0         ['block5a_activation[0][0]',  
 y)                                                                  'block5a_se_expand[0][0]']   
                                                                                                  
 block5a_project_conv (Conv  (None, 14, 14, 224)          258048    ['block5a_se_excite[0][0]']   
 2D)                                                                                              
                                                                                                  
 block5a_project_bn (BatchN  (None, 14, 14, 224)          896       ['block5a_project_conv[0][0]']
 ormalization)                                                                                    
                                                                                                  
 block5b_expand_conv (Conv2  (None, 14, 14, 1344)         301056    ['block5a_project_bn[0][0]']  
 D)                                                                                               
                                                                                                  
 block5b_expand_bn (BatchNo  (None, 14, 14, 1344)         5376      ['block5b_expand_conv[0][0]'] 
 rmalization)                                                                                     
                                                                                                  
 block5b_expand_activation   (None, 14, 14, 1344)         0         ['block5b_expand_bn[0][0]']   
 (Activation)                                                                                     
                                                                                                  
 block5b_dwconv2 (Depthwise  (None, 14, 14, 1344)         12096     ['block5b_expand_activation[0]
 Conv2D)                                                            [0]']                         
                                                                                                  
 block5b_bn (BatchNormaliza  (None, 14, 14, 1344)         5376      ['block5b_dwconv2[0][0]']     
 tion)                                                                                            
                                                                                                  
 block5b_activation (Activa  (None, 14, 14, 1344)         0         ['block5b_bn[0][0]']          
 tion)                                                                                            
                                                                                                  
 block5b_se_squeeze (Global  (None, 1344)                 0         ['block5b_activation[0][0]']  
 AveragePooling2D)                                                                                
                                                                                                  
 block5b_se_reshape (Reshap  (None, 1, 1, 1344)           0         ['block5b_se_squeeze[0][0]']  
 e)                                                                                               
                                                                                                  
 block5b_se_reduce (Conv2D)  (None, 1, 1, 56)             75320     ['block5b_se_reshape[0][0]']  
                                                                                                  
 block5b_se_expand (Conv2D)  (None, 1, 1, 1344)           76608     ['block5b_se_reduce[0][0]']   
                                                                                                  
 block5b_se_excite (Multipl  (None, 14, 14, 1344)         0         ['block5b_activation[0][0]',  
 y)                                                                  'block5b_se_expand[0][0]']   
                                                                                                  
 block5b_project_conv (Conv  (None, 14, 14, 224)          301056    ['block5b_se_excite[0][0]']   
 2D)                                                                                              
                                                                                                  
 block5b_project_bn (BatchN  (None, 14, 14, 224)          896       ['block5b_project_conv[0][0]']
 ormalization)                                                                                    
                                                                                                  
 block5b_drop (Dropout)      (None, 14, 14, 224)          0         ['block5b_project_bn[0][0]']  
                                                                                                  
 block5b_add (Add)           (None, 14, 14, 224)          0         ['block5b_drop[0][0]',        
                                                                     'block5a_project_bn[0][0]']  
                                                                                                  
 block5c_expand_conv (Conv2  (None, 14, 14, 1344)         301056    ['block5b_add[0][0]']         
 D)                                                                                               
                                                                                                  
 block5c_expand_bn (BatchNo  (None, 14, 14, 1344)         5376      ['block5c_expand_conv[0][0]'] 
 rmalization)                                                                                     
                                                                                                  
 block5c_expand_activation   (None, 14, 14, 1344)         0         ['block5c_expand_bn[0][0]']   
 (Activation)                                                                                     
                                                                                                  
 block5c_dwconv2 (Depthwise  (None, 14, 14, 1344)         12096     ['block5c_expand_activation[0]
 Conv2D)                                                            [0]']                         
                                                                                                  
 block5c_bn (BatchNormaliza  (None, 14, 14, 1344)         5376      ['block5c_dwconv2[0][0]']     
 tion)                                                                                            
                                                                                                  
 block5c_activation (Activa  (None, 14, 14, 1344)         0         ['block5c_bn[0][0]']          
 tion)                                                                                            
                                                                                                  
 block5c_se_squeeze (Global  (None, 1344)                 0         ['block5c_activation[0][0]']  
 AveragePooling2D)                                                                                
                                                                                                  
 block5c_se_reshape (Reshap  (None, 1, 1, 1344)           0         ['block5c_se_squeeze[0][0]']  
 e)                                                                                               
                                                                                                  
 block5c_se_reduce (Conv2D)  (None, 1, 1, 56)             75320     ['block5c_se_reshape[0][0]']  
                                                                                                  
 block5c_se_expand (Conv2D)  (None, 1, 1, 1344)           76608     ['block5c_se_reduce[0][0]']   
                                                                                                  
 block5c_se_excite (Multipl  (None, 14, 14, 1344)         0         ['block5c_activation[0][0]',  
 y)                                                                  'block5c_se_expand[0][0]']   
                                                                                                  
 block5c_project_conv (Conv  (None, 14, 14, 224)          301056    ['block5c_se_excite[0][0]']   
 2D)                                                                                              
                                                                                                  
 block5c_project_bn (BatchN  (None, 14, 14, 224)          896       ['block5c_project_conv[0][0]']
 ormalization)                                                                                    
                                                                                                  
 block5c_drop (Dropout)      (None, 14, 14, 224)          0         ['block5c_project_bn[0][0]']  
                                                                                                  
 block5c_add (Add)           (None, 14, 14, 224)          0         ['block5c_drop[0][0]',        
                                                                     'block5b_add[0][0]']         
                                                                                                  
 block5d_expand_conv (Conv2  (None, 14, 14, 1344)         301056    ['block5c_add[0][0]']         
 D)                                                                                               
                                                                                                  
 block5d_expand_bn (BatchNo  (None, 14, 14, 1344)         5376      ['block5d_expand_conv[0][0]'] 
 rmalization)                                                                                     
                                                                                                  
 block5d_expand_activation   (None, 14, 14, 1344)         0         ['block5d_expand_bn[0][0]']   
 (Activation)                                                                                     
                                                                                                  
 block5d_dwconv2 (Depthwise  (None, 14, 14, 1344)         12096     ['block5d_expand_activation[0]
 Conv2D)                                                            [0]']                         
                                                                                                  
 block5d_bn (BatchNormaliza  (None, 14, 14, 1344)         5376      ['block5d_dwconv2[0][0]']     
 tion)                                                                                            
                                                                                                  
 block5d_activation (Activa  (None, 14, 14, 1344)         0         ['block5d_bn[0][0]']          
 tion)                                                                                            
                                                                                                  
 block5d_se_squeeze (Global  (None, 1344)                 0         ['block5d_activation[0][0]']  
 AveragePooling2D)                                                                                
                                                                                                  
 block5d_se_reshape (Reshap  (None, 1, 1, 1344)           0         ['block5d_se_squeeze[0][0]']  
 e)                                                                                               
                                                                                                  
 block5d_se_reduce (Conv2D)  (None, 1, 1, 56)             75320     ['block5d_se_reshape[0][0]']  
                                                                                                  
 block5d_se_expand (Conv2D)  (None, 1, 1, 1344)           76608     ['block5d_se_reduce[0][0]']   
                                                                                                  
 block5d_se_excite (Multipl  (None, 14, 14, 1344)         0         ['block5d_activation[0][0]',  
 y)                                                                  'block5d_se_expand[0][0]']   
                                                                                                  
 block5d_project_conv (Conv  (None, 14, 14, 224)          301056    ['block5d_se_excite[0][0]']   
 2D)                                                                                              
                                                                                                  
 block5d_project_bn (BatchN  (None, 14, 14, 224)          896       ['block5d_project_conv[0][0]']
 ormalization)                                                                                    
                                                                                                  
 block5d_drop (Dropout)      (None, 14, 14, 224)          0         ['block5d_project_bn[0][0]']  
                                                                                                  
 block5d_add (Add)           (None, 14, 14, 224)          0         ['block5d_drop[0][0]',        
                                                                     'block5c_add[0][0]']         
                                                                                                  
 block5e_expand_conv (Conv2  (None, 14, 14, 1344)         301056    ['block5d_add[0][0]']         
 D)                                                                                               
                                                                                                  
 block5e_expand_bn (BatchNo  (None, 14, 14, 1344)         5376      ['block5e_expand_conv[0][0]'] 
 rmalization)                                                                                     
                                                                                                  
 block5e_expand_activation   (None, 14, 14, 1344)         0         ['block5e_expand_bn[0][0]']   
 (Activation)                                                                                     
                                                                                                  
 block5e_dwconv2 (Depthwise  (None, 14, 14, 1344)         12096     ['block5e_expand_activation[0]
 Conv2D)                                                            [0]']                         
                                                                                                  
 block5e_bn (BatchNormaliza  (None, 14, 14, 1344)         5376      ['block5e_dwconv2[0][0]']     
 tion)                                                                                            
                                                                                                  
 block5e_activation (Activa  (None, 14, 14, 1344)         0         ['block5e_bn[0][0]']          
 tion)                                                                                            
                                                                                                  
 block5e_se_squeeze (Global  (None, 1344)                 0         ['block5e_activation[0][0]']  
 AveragePooling2D)                                                                                
                                                                                                  
 block5e_se_reshape (Reshap  (None, 1, 1, 1344)           0         ['block5e_se_squeeze[0][0]']  
 e)                                                                                               
                                                                                                  
 block5e_se_reduce (Conv2D)  (None, 1, 1, 56)             75320     ['block5e_se_reshape[0][0]']  
                                                                                                  
 block5e_se_expand (Conv2D)  (None, 1, 1, 1344)           76608     ['block5e_se_reduce[0][0]']   
                                                                                                  
 block5e_se_excite (Multipl  (None, 14, 14, 1344)         0         ['block5e_activation[0][0]',  
 y)                                                                  'block5e_se_expand[0][0]']   
                                                                                                  
 block5e_project_conv (Conv  (None, 14, 14, 224)          301056    ['block5e_se_excite[0][0]']   
 2D)                                                                                              
                                                                                                  
 block5e_project_bn (BatchN  (None, 14, 14, 224)          896       ['block5e_project_conv[0][0]']
 ormalization)                                                                                    
                                                                                                  
 block5e_drop (Dropout)      (None, 14, 14, 224)          0         ['block5e_project_bn[0][0]']  
                                                                                                  
 block5e_add (Add)           (None, 14, 14, 224)          0         ['block5e_drop[0][0]',        
                                                                     'block5d_add[0][0]']         
                                                                                                  
 block5f_expand_conv (Conv2  (None, 14, 14, 1344)         301056    ['block5e_add[0][0]']         
 D)                                                                                               
                                                                                                  
 block5f_expand_bn (BatchNo  (None, 14, 14, 1344)         5376      ['block5f_expand_conv[0][0]'] 
 rmalization)                                                                                     
                                                                                                  
 block5f_expand_activation   (None, 14, 14, 1344)         0         ['block5f_expand_bn[0][0]']   
 (Activation)                                                                                     
                                                                                                  
 block5f_dwconv2 (Depthwise  (None, 14, 14, 1344)         12096     ['block5f_expand_activation[0]
 Conv2D)                                                            [0]']                         
                                                                                                  
 block5f_bn (BatchNormaliza  (None, 14, 14, 1344)         5376      ['block5f_dwconv2[0][0]']     
 tion)                                                                                            
                                                                                                  
 block5f_activation (Activa  (None, 14, 14, 1344)         0         ['block5f_bn[0][0]']          
 tion)                                                                                            
                                                                                                  
 block5f_se_squeeze (Global  (None, 1344)                 0         ['block5f_activation[0][0]']  
 AveragePooling2D)                                                                                
                                                                                                  
 block5f_se_reshape (Reshap  (None, 1, 1, 1344)           0         ['block5f_se_squeeze[0][0]']  
 e)                                                                                               
                                                                                                  
 block5f_se_reduce (Conv2D)  (None, 1, 1, 56)             75320     ['block5f_se_reshape[0][0]']  
                                                                                                  
 block5f_se_expand (Conv2D)  (None, 1, 1, 1344)           76608     ['block5f_se_reduce[0][0]']   
                                                                                                  
 block5f_se_excite (Multipl  (None, 14, 14, 1344)         0         ['block5f_activation[0][0]',  
 y)                                                                  'block5f_se_expand[0][0]']   
                                                                                                  
 block5f_project_conv (Conv  (None, 14, 14, 224)          301056    ['block5f_se_excite[0][0]']   
 2D)                                                                                              
                                                                                                  
 block5f_project_bn (BatchN  (None, 14, 14, 224)          896       ['block5f_project_conv[0][0]']
 ormalization)                                                                                    
                                                                                                  
 block5f_drop (Dropout)      (None, 14, 14, 224)          0         ['block5f_project_bn[0][0]']  
                                                                                                  
 block5f_add (Add)           (None, 14, 14, 224)          0         ['block5f_drop[0][0]',        
                                                                     'block5e_add[0][0]']         
                                                                                                  
 block5g_expand_conv (Conv2  (None, 14, 14, 1344)         301056    ['block5f_add[0][0]']         
 D)                                                                                               
                                                                                                  
 block5g_expand_bn (BatchNo  (None, 14, 14, 1344)         5376      ['block5g_expand_conv[0][0]'] 
 rmalization)                                                                                     
                                                                                                  
 block5g_expand_activation   (None, 14, 14, 1344)         0         ['block5g_expand_bn[0][0]']   
 (Activation)                                                                                     
                                                                                                  
 block5g_dwconv2 (Depthwise  (None, 14, 14, 1344)         12096     ['block5g_expand_activation[0]
 Conv2D)                                                            [0]']                         
                                                                                                  
 block5g_bn (BatchNormaliza  (None, 14, 14, 1344)         5376      ['block5g_dwconv2[0][0]']     
 tion)                                                                                            
                                                                                                  
 block5g_activation (Activa  (None, 14, 14, 1344)         0         ['block5g_bn[0][0]']          
 tion)                                                                                            
                                                                                                  
 block5g_se_squeeze (Global  (None, 1344)                 0         ['block5g_activation[0][0]']  
 AveragePooling2D)                                                                                
                                                                                                  
 block5g_se_reshape (Reshap  (None, 1, 1, 1344)           0         ['block5g_se_squeeze[0][0]']  
 e)                                                                                               
                                                                                                  
 block5g_se_reduce (Conv2D)  (None, 1, 1, 56)             75320     ['block5g_se_reshape[0][0]']  
                                                                                                  
 block5g_se_expand (Conv2D)  (None, 1, 1, 1344)           76608     ['block5g_se_reduce[0][0]']   
                                                                                                  
 block5g_se_excite (Multipl  (None, 14, 14, 1344)         0         ['block5g_activation[0][0]',  
 y)                                                                  'block5g_se_expand[0][0]']   
                                                                                                  
 block5g_project_conv (Conv  (None, 14, 14, 224)          301056    ['block5g_se_excite[0][0]']   
 2D)                                                                                              
                                                                                                  
 block5g_project_bn (BatchN  (None, 14, 14, 224)          896       ['block5g_project_conv[0][0]']
 ormalization)                                                                                    
                                                                                                  
 block5g_drop (Dropout)      (None, 14, 14, 224)          0         ['block5g_project_bn[0][0]']  
                                                                                                  
 block5g_add (Add)           (None, 14, 14, 224)          0         ['block5g_drop[0][0]',        
                                                                     'block5f_add[0][0]']         
                                                                                                  
 block5h_expand_conv (Conv2  (None, 14, 14, 1344)         301056    ['block5g_add[0][0]']         
 D)                                                                                               
                                                                                                  
 block5h_expand_bn (BatchNo  (None, 14, 14, 1344)         5376      ['block5h_expand_conv[0][0]'] 
 rmalization)                                                                                     
                                                                                                  
 block5h_expand_activation   (None, 14, 14, 1344)         0         ['block5h_expand_bn[0][0]']   
 (Activation)                                                                                     
                                                                                                  
 block5h_dwconv2 (Depthwise  (None, 14, 14, 1344)         12096     ['block5h_expand_activation[0]
 Conv2D)                                                            [0]']                         
                                                                                                  
 block5h_bn (BatchNormaliza  (None, 14, 14, 1344)         5376      ['block5h_dwconv2[0][0]']     
 tion)                                                                                            
                                                                                                  
 block5h_activation (Activa  (None, 14, 14, 1344)         0         ['block5h_bn[0][0]']          
 tion)                                                                                            
                                                                                                  
 block5h_se_squeeze (Global  (None, 1344)                 0         ['block5h_activation[0][0]']  
 AveragePooling2D)                                                                                
                                                                                                  
 block5h_se_reshape (Reshap  (None, 1, 1, 1344)           0         ['block5h_se_squeeze[0][0]']  
 e)                                                                                               
                                                                                                  
 block5h_se_reduce (Conv2D)  (None, 1, 1, 56)             75320     ['block5h_se_reshape[0][0]']  
                                                                                                  
 block5h_se_expand (Conv2D)  (None, 1, 1, 1344)           76608     ['block5h_se_reduce[0][0]']   
                                                                                                  
 block5h_se_excite (Multipl  (None, 14, 14, 1344)         0         ['block5h_activation[0][0]',  
 y)                                                                  'block5h_se_expand[0][0]']   
                                                                                                  
 block5h_project_conv (Conv  (None, 14, 14, 224)          301056    ['block5h_se_excite[0][0]']   
 2D)                                                                                              
                                                                                                  
 block5h_project_bn (BatchN  (None, 14, 14, 224)          896       ['block5h_project_conv[0][0]']
 ormalization)                                                                                    
                                                                                                  
 block5h_drop (Dropout)      (None, 14, 14, 224)          0         ['block5h_project_bn[0][0]']  
                                                                                                  
 block5h_add (Add)           (None, 14, 14, 224)          0         ['block5h_drop[0][0]',        
                                                                     'block5g_add[0][0]']         
                                                                                                  
 block5i_expand_conv (Conv2  (None, 14, 14, 1344)         301056    ['block5h_add[0][0]']         
 D)                                                                                               
                                                                                                  
 block5i_expand_bn (BatchNo  (None, 14, 14, 1344)         5376      ['block5i_expand_conv[0][0]'] 
 rmalization)                                                                                     
                                                                                                  
 block5i_expand_activation   (None, 14, 14, 1344)         0         ['block5i_expand_bn[0][0]']   
 (Activation)                                                                                     
                                                                                                  
 block5i_dwconv2 (Depthwise  (None, 14, 14, 1344)         12096     ['block5i_expand_activation[0]
 Conv2D)                                                            [0]']                         
                                                                                                  
 block5i_bn (BatchNormaliza  (None, 14, 14, 1344)         5376      ['block5i_dwconv2[0][0]']     
 tion)                                                                                            
                                                                                                  
 block5i_activation (Activa  (None, 14, 14, 1344)         0         ['block5i_bn[0][0]']          
 tion)                                                                                            
                                                                                                  
 block5i_se_squeeze (Global  (None, 1344)                 0         ['block5i_activation[0][0]']  
 AveragePooling2D)                                                                                
                                                                                                  
 block5i_se_reshape (Reshap  (None, 1, 1, 1344)           0         ['block5i_se_squeeze[0][0]']  
 e)                                                                                               
                                                                                                  
 block5i_se_reduce (Conv2D)  (None, 1, 1, 56)             75320     ['block5i_se_reshape[0][0]']  
                                                                                                  
 block5i_se_expand (Conv2D)  (None, 1, 1, 1344)           76608     ['block5i_se_reduce[0][0]']   
                                                                                                  
 block5i_se_excite (Multipl  (None, 14, 14, 1344)         0         ['block5i_activation[0][0]',  
 y)                                                                  'block5i_se_expand[0][0]']   
                                                                                                  
 block5i_project_conv (Conv  (None, 14, 14, 224)          301056    ['block5i_se_excite[0][0]']   
 2D)                                                                                              
                                                                                                  
 block5i_project_bn (BatchN  (None, 14, 14, 224)          896       ['block5i_project_conv[0][0]']
 ormalization)                                                                                    
                                                                                                  
 block5i_drop (Dropout)      (None, 14, 14, 224)          0         ['block5i_project_bn[0][0]']  
                                                                                                  
 block5i_add (Add)           (None, 14, 14, 224)          0         ['block5i_drop[0][0]',        
                                                                     'block5h_add[0][0]']         
                                                                                                  
 block5j_expand_conv (Conv2  (None, 14, 14, 1344)         301056    ['block5i_add[0][0]']         
 D)                                                                                               
                                                                                                  
 block5j_expand_bn (BatchNo  (None, 14, 14, 1344)         5376      ['block5j_expand_conv[0][0]'] 
 rmalization)                                                                                     
                                                                                                  
 block5j_expand_activation   (None, 14, 14, 1344)         0         ['block5j_expand_bn[0][0]']   
 (Activation)                                                                                     
                                                                                                  
 block5j_dwconv2 (Depthwise  (None, 14, 14, 1344)         12096     ['block5j_expand_activation[0]
 Conv2D)                                                            [0]']                         
                                                                                                  
 block5j_bn (BatchNormaliza  (None, 14, 14, 1344)         5376      ['block5j_dwconv2[0][0]']     
 tion)                                                                                            
                                                                                                  
 block5j_activation (Activa  (None, 14, 14, 1344)         0         ['block5j_bn[0][0]']          
 tion)                                                                                            
                                                                                                  
 block5j_se_squeeze (Global  (None, 1344)                 0         ['block5j_activation[0][0]']  
 AveragePooling2D)                                                                                
                                                                                                  
 block5j_se_reshape (Reshap  (None, 1, 1, 1344)           0         ['block5j_se_squeeze[0][0]']  
 e)                                                                                               
                                                                                                  
 block5j_se_reduce (Conv2D)  (None, 1, 1, 56)             75320     ['block5j_se_reshape[0][0]']  
                                                                                                  
 block5j_se_expand (Conv2D)  (None, 1, 1, 1344)           76608     ['block5j_se_reduce[0][0]']   
                                                                                                  
 block5j_se_excite (Multipl  (None, 14, 14, 1344)         0         ['block5j_activation[0][0]',  
 y)                                                                  'block5j_se_expand[0][0]']   
                                                                                                  
 block5j_project_conv (Conv  (None, 14, 14, 224)          301056    ['block5j_se_excite[0][0]']   
 2D)                                                                                              
                                                                                                  
 block5j_project_bn (BatchN  (None, 14, 14, 224)          896       ['block5j_project_conv[0][0]']
 ormalization)                                                                                    
                                                                                                  
 block5j_drop (Dropout)      (None, 14, 14, 224)          0         ['block5j_project_bn[0][0]']  
                                                                                                  
 block5j_add (Add)           (None, 14, 14, 224)          0         ['block5j_drop[0][0]',        
                                                                     'block5i_add[0][0]']         
                                                                                                  
 block5k_expand_conv (Conv2  (None, 14, 14, 1344)         301056    ['block5j_add[0][0]']         
 D)                                                                                               
                                                                                                  
 block5k_expand_bn (BatchNo  (None, 14, 14, 1344)         5376      ['block5k_expand_conv[0][0]'] 
 rmalization)                                                                                     
                                                                                                  
 block5k_expand_activation   (None, 14, 14, 1344)         0         ['block5k_expand_bn[0][0]']   
 (Activation)                                                                                     
                                                                                                  
 block5k_dwconv2 (Depthwise  (None, 14, 14, 1344)         12096     ['block5k_expand_activation[0]
 Conv2D)                                                            [0]']                         
                                                                                                  
 block5k_bn (BatchNormaliza  (None, 14, 14, 1344)         5376      ['block5k_dwconv2[0][0]']     
 tion)                                                                                            
                                                                                                  
 block5k_activation (Activa  (None, 14, 14, 1344)         0         ['block5k_bn[0][0]']          
 tion)                                                                                            
                                                                                                  
 block5k_se_squeeze (Global  (None, 1344)                 0         ['block5k_activation[0][0]']  
 AveragePooling2D)                                                                                
                                                                                                  
 block5k_se_reshape (Reshap  (None, 1, 1, 1344)           0         ['block5k_se_squeeze[0][0]']  
 e)                                                                                               
                                                                                                  
 block5k_se_reduce (Conv2D)  (None, 1, 1, 56)             75320     ['block5k_se_reshape[0][0]']  
                                                                                                  
 block5k_se_expand (Conv2D)  (None, 1, 1, 1344)           76608     ['block5k_se_reduce[0][0]']   
                                                                                                  
 block5k_se_excite (Multipl  (None, 14, 14, 1344)         0         ['block5k_activation[0][0]',  
 y)                                                                  'block5k_se_expand[0][0]']   
                                                                                                  
 block5k_project_conv (Conv  (None, 14, 14, 224)          301056    ['block5k_se_excite[0][0]']   
 2D)                                                                                              
                                                                                                  
 block5k_project_bn (BatchN  (None, 14, 14, 224)          896       ['block5k_project_conv[0][0]']
 ormalization)                                                                                    
                                                                                                  
 block5k_drop (Dropout)      (None, 14, 14, 224)          0         ['block5k_project_bn[0][0]']  
                                                                                                  
 block5k_add (Add)           (None, 14, 14, 224)          0         ['block5k_drop[0][0]',        
                                                                     'block5j_add[0][0]']         
                                                                                                  
 block5l_expand_conv (Conv2  (None, 14, 14, 1344)         301056    ['block5k_add[0][0]']         
 D)                                                                                               
                                                                                                  
 block5l_expand_bn (BatchNo  (None, 14, 14, 1344)         5376      ['block5l_expand_conv[0][0]'] 
 rmalization)                                                                                     
                                                                                                  
 block5l_expand_activation   (None, 14, 14, 1344)         0         ['block5l_expand_bn[0][0]']   
 (Activation)                                                                                     
                                                                                                  
 block5l_dwconv2 (Depthwise  (None, 14, 14, 1344)         12096     ['block5l_expand_activation[0]
 Conv2D)                                                            [0]']                         
                                                                                                  
 block5l_bn (BatchNormaliza  (None, 14, 14, 1344)         5376      ['block5l_dwconv2[0][0]']     
 tion)                                                                                            
                                                                                                  
 block5l_activation (Activa  (None, 14, 14, 1344)         0         ['block5l_bn[0][0]']          
 tion)                                                                                            
                                                                                                  
 block5l_se_squeeze (Global  (None, 1344)                 0         ['block5l_activation[0][0]']  
 AveragePooling2D)                                                                                
                                                                                                  
 block5l_se_reshape (Reshap  (None, 1, 1, 1344)           0         ['block5l_se_squeeze[0][0]']  
 e)                                                                                               
                                                                                                  
 block5l_se_reduce (Conv2D)  (None, 1, 1, 56)             75320     ['block5l_se_reshape[0][0]']  
                                                                                                  
 block5l_se_expand (Conv2D)  (None, 1, 1, 1344)           76608     ['block5l_se_reduce[0][0]']   
                                                                                                  
 block5l_se_excite (Multipl  (None, 14, 14, 1344)         0         ['block5l_activation[0][0]',  
 y)                                                                  'block5l_se_expand[0][0]']   
                                                                                                  
 block5l_project_conv (Conv  (None, 14, 14, 224)          301056    ['block5l_se_excite[0][0]']   
 2D)                                                                                              
                                                                                                  
 block5l_project_bn (BatchN  (None, 14, 14, 224)          896       ['block5l_project_conv[0][0]']
 ormalization)                                                                                    
                                                                                                  
 block5l_drop (Dropout)      (None, 14, 14, 224)          0         ['block5l_project_bn[0][0]']  
                                                                                                  
 block5l_add (Add)           (None, 14, 14, 224)          0         ['block5l_drop[0][0]',        
                                                                     'block5k_add[0][0]']         
                                                                                                  
 block5m_expand_conv (Conv2  (None, 14, 14, 1344)         301056    ['block5l_add[0][0]']         
 D)                                                                                               
                                                                                                  
 block5m_expand_bn (BatchNo  (None, 14, 14, 1344)         5376      ['block5m_expand_conv[0][0]'] 
 rmalization)                                                                                     
                                                                                                  
 block5m_expand_activation   (None, 14, 14, 1344)         0         ['block5m_expand_bn[0][0]']   
 (Activation)                                                                                     
                                                                                                  
 block5m_dwconv2 (Depthwise  (None, 14, 14, 1344)         12096     ['block5m_expand_activation[0]
 Conv2D)                                                            [0]']                         
                                                                                                  
 block5m_bn (BatchNormaliza  (None, 14, 14, 1344)         5376      ['block5m_dwconv2[0][0]']     
 tion)                                                                                            
                                                                                                  
 block5m_activation (Activa  (None, 14, 14, 1344)         0         ['block5m_bn[0][0]']          
 tion)                                                                                            
                                                                                                  
 block5m_se_squeeze (Global  (None, 1344)                 0         ['block5m_activation[0][0]']  
 AveragePooling2D)                                                                                
                                                                                                  
 block5m_se_reshape (Reshap  (None, 1, 1, 1344)           0         ['block5m_se_squeeze[0][0]']  
 e)                                                                                               
                                                                                                  
 block5m_se_reduce (Conv2D)  (None, 1, 1, 56)             75320     ['block5m_se_reshape[0][0]']  
                                                                                                  
 block5m_se_expand (Conv2D)  (None, 1, 1, 1344)           76608     ['block5m_se_reduce[0][0]']   
                                                                                                  
 block5m_se_excite (Multipl  (None, 14, 14, 1344)         0         ['block5m_activation[0][0]',  
 y)                                                                  'block5m_se_expand[0][0]']   
                                                                                                  
 block5m_project_conv (Conv  (None, 14, 14, 224)          301056    ['block5m_se_excite[0][0]']   
 2D)                                                                                              
                                                                                                  
 block5m_project_bn (BatchN  (None, 14, 14, 224)          896       ['block5m_project_conv[0][0]']
 ormalization)                                                                                    
                                                                                                  
 block5m_drop (Dropout)      (None, 14, 14, 224)          0         ['block5m_project_bn[0][0]']  
                                                                                                  
 block5m_add (Add)           (None, 14, 14, 224)          0         ['block5m_drop[0][0]',        
                                                                     'block5l_add[0][0]']         
                                                                                                  
 block5n_expand_conv (Conv2  (None, 14, 14, 1344)         301056    ['block5m_add[0][0]']         
 D)                                                                                               
                                                                                                  
 block5n_expand_bn (BatchNo  (None, 14, 14, 1344)         5376      ['block5n_expand_conv[0][0]'] 
 rmalization)                                                                                     
                                                                                                  
 block5n_expand_activation   (None, 14, 14, 1344)         0         ['block5n_expand_bn[0][0]']   
 (Activation)                                                                                     
                                                                                                  
 block5n_dwconv2 (Depthwise  (None, 14, 14, 1344)         12096     ['block5n_expand_activation[0]
 Conv2D)                                                            [0]']                         
                                                                                                  
 block5n_bn (BatchNormaliza  (None, 14, 14, 1344)         5376      ['block5n_dwconv2[0][0]']     
 tion)                                                                                            
                                                                                                  
 block5n_activation (Activa  (None, 14, 14, 1344)         0         ['block5n_bn[0][0]']          
 tion)                                                                                            
                                                                                                  
 block5n_se_squeeze (Global  (None, 1344)                 0         ['block5n_activation[0][0]']  
 AveragePooling2D)                                                                                
                                                                                                  
 block5n_se_reshape (Reshap  (None, 1, 1, 1344)           0         ['block5n_se_squeeze[0][0]']  
 e)                                                                                               
                                                                                                  
 block5n_se_reduce (Conv2D)  (None, 1, 1, 56)             75320     ['block5n_se_reshape[0][0]']  
                                                                                                  
 block5n_se_expand (Conv2D)  (None, 1, 1, 1344)           76608     ['block5n_se_reduce[0][0]']   
                                                                                                  
 block5n_se_excite (Multipl  (None, 14, 14, 1344)         0         ['block5n_activation[0][0]',  
 y)                                                                  'block5n_se_expand[0][0]']   
                                                                                                  
 block5n_project_conv (Conv  (None, 14, 14, 224)          301056    ['block5n_se_excite[0][0]']   
 2D)                                                                                              
                                                                                                  
 block5n_project_bn (BatchN  (None, 14, 14, 224)          896       ['block5n_project_conv[0][0]']
 ormalization)                                                                                    
                                                                                                  
 block5n_drop (Dropout)      (None, 14, 14, 224)          0         ['block5n_project_bn[0][0]']  
                                                                                                  
 block5n_add (Add)           (None, 14, 14, 224)          0         ['block5n_drop[0][0]',        
                                                                     'block5m_add[0][0]']         
                                                                                                  
 block5o_expand_conv (Conv2  (None, 14, 14, 1344)         301056    ['block5n_add[0][0]']         
 D)                                                                                               
                                                                                                  
 block5o_expand_bn (BatchNo  (None, 14, 14, 1344)         5376      ['block5o_expand_conv[0][0]'] 
 rmalization)                                                                                     
                                                                                                  
 block5o_expand_activation   (None, 14, 14, 1344)         0         ['block5o_expand_bn[0][0]']   
 (Activation)                                                                                     
                                                                                                  
 block5o_dwconv2 (Depthwise  (None, 14, 14, 1344)         12096     ['block5o_expand_activation[0]
 Conv2D)                                                            [0]']                         
                                                                                                  
 block5o_bn (BatchNormaliza  (None, 14, 14, 1344)         5376      ['block5o_dwconv2[0][0]']     
 tion)                                                                                            
                                                                                                  
 block5o_activation (Activa  (None, 14, 14, 1344)         0         ['block5o_bn[0][0]']          
 tion)                                                                                            
                                                                                                  
 block5o_se_squeeze (Global  (None, 1344)                 0         ['block5o_activation[0][0]']  
 AveragePooling2D)                                                                                
                                                                                                  
 block5o_se_reshape (Reshap  (None, 1, 1, 1344)           0         ['block5o_se_squeeze[0][0]']  
 e)                                                                                               
                                                                                                  
 block5o_se_reduce (Conv2D)  (None, 1, 1, 56)             75320     ['block5o_se_reshape[0][0]']  
                                                                                                  
 block5o_se_expand (Conv2D)  (None, 1, 1, 1344)           76608     ['block5o_se_reduce[0][0]']   
                                                                                                  
 block5o_se_excite (Multipl  (None, 14, 14, 1344)         0         ['block5o_activation[0][0]',  
 y)                                                                  'block5o_se_expand[0][0]']   
                                                                                                  
 block5o_project_conv (Conv  (None, 14, 14, 224)          301056    ['block5o_se_excite[0][0]']   
 2D)                                                                                              
                                                                                                  
 block5o_project_bn (BatchN  (None, 14, 14, 224)          896       ['block5o_project_conv[0][0]']
 ormalization)                                                                                    
                                                                                                  
 block5o_drop (Dropout)      (None, 14, 14, 224)          0         ['block5o_project_bn[0][0]']  
                                                                                                  
 block5o_add (Add)           (None, 14, 14, 224)          0         ['block5o_drop[0][0]',        
                                                                     'block5n_add[0][0]']         
                                                                                                  
 block5p_expand_conv (Conv2  (None, 14, 14, 1344)         301056    ['block5o_add[0][0]']         
 D)                                                                                               
                                                                                                  
 block5p_expand_bn (BatchNo  (None, 14, 14, 1344)         5376      ['block5p_expand_conv[0][0]'] 
 rmalization)                                                                                     
                                                                                                  
 block5p_expand_activation   (None, 14, 14, 1344)         0         ['block5p_expand_bn[0][0]']   
 (Activation)                                                                                     
                                                                                                  
 block5p_dwconv2 (Depthwise  (None, 14, 14, 1344)         12096     ['block5p_expand_activation[0]
 Conv2D)                                                            [0]']                         
                                                                                                  
 block5p_bn (BatchNormaliza  (None, 14, 14, 1344)         5376      ['block5p_dwconv2[0][0]']     
 tion)                                                                                            
                                                                                                  
 block5p_activation (Activa  (None, 14, 14, 1344)         0         ['block5p_bn[0][0]']          
 tion)                                                                                            
                                                                                                  
 block5p_se_squeeze (Global  (None, 1344)                 0         ['block5p_activation[0][0]']  
 AveragePooling2D)                                                                                
                                                                                                  
 block5p_se_reshape (Reshap  (None, 1, 1, 1344)           0         ['block5p_se_squeeze[0][0]']  
 e)                                                                                               
                                                                                                  
 block5p_se_reduce (Conv2D)  (None, 1, 1, 56)             75320     ['block5p_se_reshape[0][0]']  
                                                                                                  
 block5p_se_expand (Conv2D)  (None, 1, 1, 1344)           76608     ['block5p_se_reduce[0][0]']   
                                                                                                  
 block5p_se_excite (Multipl  (None, 14, 14, 1344)         0         ['block5p_activation[0][0]',  
 y)                                                                  'block5p_se_expand[0][0]']   
                                                                                                  
 block5p_project_conv (Conv  (None, 14, 14, 224)          301056    ['block5p_se_excite[0][0]']   
 2D)                                                                                              
                                                                                                  
 block5p_project_bn (BatchN  (None, 14, 14, 224)          896       ['block5p_project_conv[0][0]']
 ormalization)                                                                                    
                                                                                                  
 block5p_drop (Dropout)      (None, 14, 14, 224)          0         ['block5p_project_bn[0][0]']  
                                                                                                  
 block5p_add (Add)           (None, 14, 14, 224)          0         ['block5p_drop[0][0]',        
                                                                     'block5o_add[0][0]']         
                                                                                                  
 block5q_expand_conv (Conv2  (None, 14, 14, 1344)         301056    ['block5p_add[0][0]']         
 D)                                                                                               
                                                                                                  
 block5q_expand_bn (BatchNo  (None, 14, 14, 1344)         5376      ['block5q_expand_conv[0][0]'] 
 rmalization)                                                                                     
                                                                                                  
 block5q_expand_activation   (None, 14, 14, 1344)         0         ['block5q_expand_bn[0][0]']   
 (Activation)                                                                                     
                                                                                                  
 block5q_dwconv2 (Depthwise  (None, 14, 14, 1344)         12096     ['block5q_expand_activation[0]
 Conv2D)                                                            [0]']                         
                                                                                                  
 block5q_bn (BatchNormaliza  (None, 14, 14, 1344)         5376      ['block5q_dwconv2[0][0]']     
 tion)                                                                                            
                                                                                                  
 block5q_activation (Activa  (None, 14, 14, 1344)         0         ['block5q_bn[0][0]']          
 tion)                                                                                            
                                                                                                  
 block5q_se_squeeze (Global  (None, 1344)                 0         ['block5q_activation[0][0]']  
 AveragePooling2D)                                                                                
                                                                                                  
 block5q_se_reshape (Reshap  (None, 1, 1, 1344)           0         ['block5q_se_squeeze[0][0]']  
 e)                                                                                               
                                                                                                  
 block5q_se_reduce (Conv2D)  (None, 1, 1, 56)             75320     ['block5q_se_reshape[0][0]']  
                                                                                                  
 block5q_se_expand (Conv2D)  (None, 1, 1, 1344)           76608     ['block5q_se_reduce[0][0]']   
                                                                                                  
 block5q_se_excite (Multipl  (None, 14, 14, 1344)         0         ['block5q_activation[0][0]',  
 y)                                                                  'block5q_se_expand[0][0]']   
                                                                                                  
 block5q_project_conv (Conv  (None, 14, 14, 224)          301056    ['block5q_se_excite[0][0]']   
 2D)                                                                                              
                                                                                                  
 block5q_project_bn (BatchN  (None, 14, 14, 224)          896       ['block5q_project_conv[0][0]']
 ormalization)                                                                                    
                                                                                                  
 block5q_drop (Dropout)      (None, 14, 14, 224)          0         ['block5q_project_bn[0][0]']  
                                                                                                  
 block5q_add (Add)           (None, 14, 14, 224)          0         ['block5q_drop[0][0]',        
                                                                     'block5p_add[0][0]']         
                                                                                                  
 block5r_expand_conv (Conv2  (None, 14, 14, 1344)         301056    ['block5q_add[0][0]']         
 D)                                                                                               
                                                                                                  
 block5r_expand_bn (BatchNo  (None, 14, 14, 1344)         5376      ['block5r_expand_conv[0][0]'] 
 rmalization)                                                                                     
                                                                                                  
 block5r_expand_activation   (None, 14, 14, 1344)         0         ['block5r_expand_bn[0][0]']   
 (Activation)                                                                                     
                                                                                                  
 block5r_dwconv2 (Depthwise  (None, 14, 14, 1344)         12096     ['block5r_expand_activation[0]
 Conv2D)                                                            [0]']                         
                                                                                                  
 block5r_bn (BatchNormaliza  (None, 14, 14, 1344)         5376      ['block5r_dwconv2[0][0]']     
 tion)                                                                                            
                                                                                                  
 block5r_activation (Activa  (None, 14, 14, 1344)         0         ['block5r_bn[0][0]']          
 tion)                                                                                            
                                                                                                  
 block5r_se_squeeze (Global  (None, 1344)                 0         ['block5r_activation[0][0]']  
 AveragePooling2D)                                                                                
                                                                                                  
 block5r_se_reshape (Reshap  (None, 1, 1, 1344)           0         ['block5r_se_squeeze[0][0]']  
 e)                                                                                               
                                                                                                  
 block5r_se_reduce (Conv2D)  (None, 1, 1, 56)             75320     ['block5r_se_reshape[0][0]']  
                                                                                                  
 block5r_se_expand (Conv2D)  (None, 1, 1, 1344)           76608     ['block5r_se_reduce[0][0]']   
                                                                                                  
 block5r_se_excite (Multipl  (None, 14, 14, 1344)         0         ['block5r_activation[0][0]',  
 y)                                                                  'block5r_se_expand[0][0]']   
                                                                                                  
 block5r_project_conv (Conv  (None, 14, 14, 224)          301056    ['block5r_se_excite[0][0]']   
 2D)                                                                                              
                                                                                                  
 block5r_project_bn (BatchN  (None, 14, 14, 224)          896       ['block5r_project_conv[0][0]']
 ormalization)                                                                                    
                                                                                                  
 block5r_drop (Dropout)      (None, 14, 14, 224)          0         ['block5r_project_bn[0][0]']  
                                                                                                  
 block5r_add (Add)           (None, 14, 14, 224)          0         ['block5r_drop[0][0]',        
                                                                     'block5q_add[0][0]']         
                                                                                                  
 block5s_expand_conv (Conv2  (None, 14, 14, 1344)         301056    ['block5r_add[0][0]']         
 D)                                                                                               
                                                                                                  
 block5s_expand_bn (BatchNo  (None, 14, 14, 1344)         5376      ['block5s_expand_conv[0][0]'] 
 rmalization)                                                                                     
…
 block6u_expand_activation   (None, 7, 7, 2304)           0         ['block6u_expand_bn[0][0]']   
 (Activation)                                                                                     
                                                                                                  
 block6u_dwconv2 (Depthwise  (None, 7, 7, 2304)           20736     ['block6u_expand_activation[0]
 Conv2D)                                                            [0]']                         
                                                                                                  
 block6u_bn (BatchNormaliza  (None, 7, 7, 2304)           9216      ['block6u_dwconv2[0][0]']     
 tion)                                                                                            
                                                                                                  
 block6u_activation (Activa  (None, 7, 7, 2304)           0         ['block6u_bn[0][0]']          
 tion)                                                                                            
                                                                                                  
 block6u_se_squeeze (Global  (None, 2304)                 0         ['block6u_activation[0][0]']  
 AveragePooling2D)                                                                                
                                                                                                  
 block6u_se_reshape (Reshap  (None, 1, 1, 2304)           0         ['block6u_se_squeeze[0][0]']  
 e)                                                                                               
                                                                                                  
 block6u_se_reduce (Conv2D)  (None, 1, 1, 96)             221280    ['block6u_se_reshape[0][0]']  
                                                                                                  
 block6u_se_expand (Conv2D)  (None, 1, 1, 2304)           223488    ['block6u_se_reduce[0][0]']   
                                                                                                  
 block6u_se_excite (Multipl  (None, 7, 7, 2304)           0         ['block6u_activation[0][0]',  
 y)                                                                  'block6u_se_expand[0][0]']   
                                                                                                  
 block6u_project_conv (Conv  (None, 7, 7, 384)            884736    ['block6u_se_excite[0][0]']   
 2D)                                                                                              
                                                                                                  
 block6u_project_bn (BatchN  (None, 7, 7, 384)            1536      ['block6u_project_conv[0][0]']
 ormalization)                                                                                    
                                                                                                  
 block6u_drop (Dropout)      (None, 7, 7, 384)            0         ['block6u_project_bn[0][0]']  
                                                                                                  
 block6u_add (Add)           (None, 7, 7, 384)            0         ['block6u_drop[0][0]',        
                                                                     'block6t_add[0][0]']         
                                                                                                  
 block6v_expand_conv (Conv2  (None, 7, 7, 2304)           884736    ['block6u_add[0][0]']         
 D)                                                                                               
                                                                                                  
 block6v_expand_bn (BatchNo  (None, 7, 7, 2304)           9216      ['block6v_expand_conv[0][0]'] 
 rmalization)                                                                                     
                                                                                                  
 block6v_expand_activation   (None, 7, 7, 2304)           0         ['block6v_expand_bn[0][0]']   
 (Activation)                                                                                     
                                                                                                  
 block6v_dwconv2 (Depthwise  (None, 7, 7, 2304)           20736     ['block6v_expand_activation[0]
 Conv2D)                                                            [0]']                         
                                                                                                  
 block6v_bn (BatchNormaliza  (None, 7, 7, 2304)           9216      ['block6v_dwconv2[0][0]']     
 tion)                                                                                            
                                                                                                  
 block6v_activation (Activa  (None, 7, 7, 2304)           0         ['block6v_bn[0][0]']          
 tion)                                                                                            
                                                                                                  
 block6v_se_squeeze (Global  (None, 2304)                 0         ['block6v_activation[0][0]']  
 AveragePooling2D)                                                                                
                                                                                                  
 block6v_se_reshape (Reshap  (None, 1, 1, 2304)           0         ['block6v_se_squeeze[0][0]']  
 e)                                                                                               
                                                                                                  
 block6v_se_reduce (Conv2D)  (None, 1, 1, 96)             221280    ['block6v_se_reshape[0][0]']  
                                                                                                  
 block6v_se_expand (Conv2D)  (None, 1, 1, 2304)           223488    ['block6v_se_reduce[0][0]']   
                                                                                                  
 block6v_se_excite (Multipl  (None, 7, 7, 2304)           0         ['block6v_activation[0][0]',  
 y)                                                                  'block6v_se_expand[0][0]']   
                                                                                                  
 block6v_project_conv (Conv  (None, 7, 7, 384)            884736    ['block6v_se_excite[0][0]']   
 2D)                                                                                              
                                                                                                  
 block6v_project_bn (BatchN  (None, 7, 7, 384)            1536      ['block6v_project_conv[0][0]']
 ormalization)                                                                                    
                                                                                                  
 block6v_drop (Dropout)      (None, 7, 7, 384)            0         ['block6v_project_bn[0][0]']  
                                                                                                  
 block6v_add (Add)           (None, 7, 7, 384)            0         ['block6v_drop[0][0]',        
                                                                     'block6u_add[0][0]']         
                                                                                                  
 block6w_expand_conv (Conv2  (None, 7, 7, 2304)           884736    ['block6v_add[0][0]']         
 D)                                                                                               
                                                                                                  
 block6w_expand_bn (BatchNo  (None, 7, 7, 2304)           9216      ['block6w_expand_conv[0][0]'] 
 rmalization)                                                                                     
                                                                                                  
 block6w_expand_activation   (None, 7, 7, 2304)           0         ['block6w_expand_bn[0][0]']   
 (Activation)                                                                                     
                                                                                                  
 block6w_dwconv2 (Depthwise  (None, 7, 7, 2304)           20736     ['block6w_expand_activation[0]
 Conv2D)                                                            [0]']                         
                                                                                                  
 block6w_bn (BatchNormaliza  (None, 7, 7, 2304)           9216      ['block6w_dwconv2[0][0]']     
 tion)                                                                                            
                                                                                                  
 block6w_activation (Activa  (None, 7, 7, 2304)           0         ['block6w_bn[0][0]']          
 tion)                                                                                            
                                                                                                  
 block6w_se_squeeze (Global  (None, 2304)                 0         ['block6w_activation[0][0]']  
 AveragePooling2D)                                                                                
                                                                                                  
 block6w_se_reshape (Reshap  (None, 1, 1, 2304)           0         ['block6w_se_squeeze[0][0]']  
 e)                                                                                               
                                                                                                  
 block6w_se_reduce (Conv2D)  (None, 1, 1, 96)             221280    ['block6w_se_reshape[0][0]']  
                                                                                                  
 block6w_se_expand (Conv2D)  (None, 1, 1, 2304)           223488    ['block6w_se_reduce[0][0]']   
                                                                                                  
 block6w_se_excite (Multipl  (None, 7, 7, 2304)           0         ['block6w_activation[0][0]',  
 y)                                                                  'block6w_se_expand[0][0]']   
                                                                                                  
 block6w_project_conv (Conv  (None, 7, 7, 384)            884736    ['block6w_se_excite[0][0]']   
 2D)                                                                                              
                                                                                                  
 block6w_project_bn (BatchN  (None, 7, 7, 384)            1536      ['block6w_project_conv[0][0]']
 ormalization)                                                                                    
                                                                                                  
 block6w_drop (Dropout)      (None, 7, 7, 384)            0         ['block6w_project_bn[0][0]']  
                                                                                                  
 block6w_add (Add)           (None, 7, 7, 384)            0         ['block6w_drop[0][0]',        
                                                                     'block6v_add[0][0]']         
                                                                                                  
 block6x_expand_conv (Conv2  (None, 7, 7, 2304)           884736    ['block6w_add[0][0]']         
 D)                                                                                               
                                                                                                  
 block6x_expand_bn (BatchNo  (None, 7, 7, 2304)           9216      ['block6x_expand_conv[0][0]'] 
 rmalization)                                                                                     
                                                                                                  
 block6x_expand_activation   (None, 7, 7, 2304)           0         ['block6x_expand_bn[0][0]']   
 (Activation)                                                                                     
                                                                                                  
 block6x_dwconv2 (Depthwise  (None, 7, 7, 2304)           20736     ['block6x_expand_activation[0]
 Conv2D)                                                            [0]']                         
                                                                                                  
 block6x_bn (BatchNormaliza  (None, 7, 7, 2304)           9216      ['block6x_dwconv2[0][0]']     
 tion)                                                                                            
                                                                                                  
 block6x_activation (Activa  (None, 7, 7, 2304)           0         ['block6x_bn[0][0]']          
 tion)                                                                                            
                                                                                                  
 block6x_se_squeeze (Global  (None, 2304)                 0         ['block6x_activation[0][0]']  
 AveragePooling2D)                                                                                
                                                                                                  
 block6x_se_reshape (Reshap  (None, 1, 1, 2304)           0         ['block6x_se_squeeze[0][0]']  
 e)                                                                                               
                                                                                                  
 block6x_se_reduce (Conv2D)  (None, 1, 1, 96)             221280    ['block6x_se_reshape[0][0]']  
                                                                                                  
 block6x_se_expand (Conv2D)  (None, 1, 1, 2304)           223488    ['block6x_se_reduce[0][0]']   
                                                                                                  
 block6x_se_excite (Multipl  (None, 7, 7, 2304)           0         ['block6x_activation[0][0]',  
 y)                                                                  'block6x_se_expand[0][0]']   
                                                                                                  
 block6x_project_conv (Conv  (None, 7, 7, 384)            884736    ['block6x_se_excite[0][0]']   
 2D)                                                                                              
                                                                                                  
 block6x_project_bn (BatchN  (None, 7, 7, 384)            1536      ['block6x_project_conv[0][0]']
 ormalization)                                                                                    
                                                                                                  
 block6x_drop (Dropout)      (None, 7, 7, 384)            0         ['block6x_project_bn[0][0]']  
                                                                                                  
 block6x_add (Add)           (None, 7, 7, 384)            0         ['block6x_drop[0][0]',        
                                                                     'block6w_add[0][0]']         
                                                                                                  
 block6y_expand_conv (Conv2  (None, 7, 7, 2304)           884736    ['block6x_add[0][0]']         
 D)                                                                                               
                                                                                                  
 block6y_expand_bn (BatchNo  (None, 7, 7, 2304)           9216      ['block6y_expand_conv[0][0]'] 
 rmalization)                                                                                     
                                                                                                  
 block6y_expand_activation   (None, 7, 7, 2304)           0         ['block6y_expand_bn[0][0]']   
 (Activation)                                                                                     
                                                                                                  
 block6y_dwconv2 (Depthwise  (None, 7, 7, 2304)           20736     ['block6y_expand_activation[0]
 Conv2D)                                                            [0]']                         
                                                                                                  
 block6y_bn (BatchNormaliza  (None, 7, 7, 2304)           9216      ['block6y_dwconv2[0][0]']     
 tion)                                                                                            
                                                                                                  
 block6y_activation (Activa  (None, 7, 7, 2304)           0         ['block6y_bn[0][0]']          
 tion)                                                                                            
                                                                                                  
 block6y_se_squeeze (Global  (None, 2304)                 0         ['block6y_activation[0][0]']  
 AveragePooling2D)                                                                                
                                                                                                  
 block6y_se_reshape (Reshap  (None, 1, 1, 2304)           0         ['block6y_se_squeeze[0][0]']  
 e)                                                                                               
                                                                                                  
 block6y_se_reduce (Conv2D)  (None, 1, 1, 96)             221280    ['block6y_se_reshape[0][0]']  
                                                                                                  
 block6y_se_expand (Conv2D)  (None, 1, 1, 2304)           223488    ['block6y_se_reduce[0][0]']   
                                                                                                  
 block6y_se_excite (Multipl  (None, 7, 7, 2304)           0         ['block6y_activation[0][0]',  
 y)                                                                  'block6y_se_expand[0][0]']   
                                                                                                  
 block6y_project_conv (Conv  (None, 7, 7, 384)            884736    ['block6y_se_excite[0][0]']   
 2D)                                                                                              
                                                                                                  
 block6y_project_bn (BatchN  (None, 7, 7, 384)            1536      ['block6y_project_conv[0][0]']
 ormalization)                                                                                    
                                                                                                  
 block6y_drop (Dropout)      (None, 7, 7, 384)            0         ['block6y_project_bn[0][0]']  
                                                                                                  
 block6y_add (Add)           (None, 7, 7, 384)            0         ['block6y_drop[0][0]',        
                                                                     'block6x_add[0][0]']         
                                                                                                  
 block7a_expand_conv (Conv2  (None, 7, 7, 2304)           884736    ['block6y_add[0][0]']         
 D)                                                                                               
                                                                                                  
 block7a_expand_bn (BatchNo  (None, 7, 7, 2304)           9216      ['block7a_expand_conv[0][0]'] 
 rmalization)                                                                                     
                                                                                                  
 block7a_expand_activation   (None, 7, 7, 2304)           0         ['block7a_expand_bn[0][0]']   
 (Activation)                                                                                     
                                                                                                  
 block7a_dwconv2 (Depthwise  (None, 7, 7, 2304)           20736     ['block7a_expand_activation[0]
 Conv2D)                                                            [0]']                         
                                                                                                  
 block7a_bn (BatchNormaliza  (None, 7, 7, 2304)           9216      ['block7a_dwconv2[0][0]']     
 tion)                                                                                            
                                                                                                  
 block7a_activation (Activa  (None, 7, 7, 2304)           0         ['block7a_bn[0][0]']          
 tion)                                                                                            
                                                                                                  
 block7a_se_squeeze (Global  (None, 2304)                 0         ['block7a_activation[0][0]']  
 AveragePooling2D)                                                                                
                                                                                                  
 block7a_se_reshape (Reshap  (None, 1, 1, 2304)           0         ['block7a_se_squeeze[0][0]']  
 e)                                                                                               
                                                                                                  
 block7a_se_reduce (Conv2D)  (None, 1, 1, 96)             221280    ['block7a_se_reshape[0][0]']  
                                                                                                  
 block7a_se_expand (Conv2D)  (None, 1, 1, 2304)           223488    ['block7a_se_reduce[0][0]']   
                                                                                                  
 block7a_se_excite (Multipl  (None, 7, 7, 2304)           0         ['block7a_activation[0][0]',  
 y)                                                                  'block7a_se_expand[0][0]']   
                                                                                                  
 block7a_project_conv (Conv  (None, 7, 7, 640)            1474560   ['block7a_se_excite[0][0]']   
 2D)                                                                                              
                                                                                                  
 block7a_project_bn (BatchN  (None, 7, 7, 640)            2560      ['block7a_project_conv[0][0]']
 ormalization)                                                                                    
                                                                                                  
 block7b_expand_conv (Conv2  (None, 7, 7, 3840)           2457600   ['block7a_project_bn[0][0]']  
 D)                                                                                               
                                                                                                  
 block7b_expand_bn (BatchNo  (None, 7, 7, 3840)           15360     ['block7b_expand_conv[0][0]'] 
 rmalization)                                                                                     
                                                                                                  
 block7b_expand_activation   (None, 7, 7, 3840)           0         ['block7b_expand_bn[0][0]']   
 (Activation)                                                                                     
                                                                                                  
 block7b_dwconv2 (Depthwise  (None, 7, 7, 3840)           34560     ['block7b_expand_activation[0]
 Conv2D)                                                            [0]']                         
                                                                                                  
 block7b_bn (BatchNormaliza  (None, 7, 7, 3840)           15360     ['block7b_dwconv2[0][0]']     
 tion)                                                                                            
                                                                                                  
 block7b_activation (Activa  (None, 7, 7, 3840)           0         ['block7b_bn[0][0]']          
 tion)                                                                                            
                                                                                                  
 block7b_se_squeeze (Global  (None, 3840)                 0         ['block7b_activation[0][0]']  
 AveragePooling2D)                                                                                
                                                                                                  
 block7b_se_reshape (Reshap  (None, 1, 1, 3840)           0         ['block7b_se_squeeze[0][0]']  
 e)                                                                                               
                                                                                                  
 block7b_se_reduce (Conv2D)  (None, 1, 1, 160)            614560    ['block7b_se_reshape[0][0]']  
                                                                                                  
 block7b_se_expand (Conv2D)  (None, 1, 1, 3840)           618240    ['block7b_se_reduce[0][0]']   
                                                                                                  
 block7b_se_excite (Multipl  (None, 7, 7, 3840)           0         ['block7b_activation[0][0]',  
 y)                                                                  'block7b_se_expand[0][0]']   
                                                                                                  
 block7b_project_conv (Conv  (None, 7, 7, 640)            2457600   ['block7b_se_excite[0][0]']   
 2D)                                                                                              
                                                                                                  
 block7b_project_bn (BatchN  (None, 7, 7, 640)            2560      ['block7b_project_conv[0][0]']
 ormalization)                                                                                    
                                                                                                  
 block7b_drop (Dropout)      (None, 7, 7, 640)            0         ['block7b_project_bn[0][0]']  
                                                                                                  
 block7b_add (Add)           (None, 7, 7, 640)            0         ['block7b_drop[0][0]',        
                                                                     'block7a_project_bn[0][0]']  
                                                                                                  
 block7c_expand_conv (Conv2  (None, 7, 7, 3840)           2457600   ['block7b_add[0][0]']         
 D)                                                                                               
                                                                                                  
 block7c_expand_bn (BatchNo  (None, 7, 7, 3840)           15360     ['block7c_expand_conv[0][0]'] 
 rmalization)                                                                                     
                                                                                                  
 block7c_expand_activation   (None, 7, 7, 3840)           0         ['block7c_expand_bn[0][0]']   
 (Activation)                                                                                     
                                                                                                  
 block7c_dwconv2 (Depthwise  (None, 7, 7, 3840)           34560     ['block7c_expand_activation[0]
 Conv2D)                                                            [0]']                         
                                                                                                  
 block7c_bn (BatchNormaliza  (None, 7, 7, 3840)           15360     ['block7c_dwconv2[0][0]']     
 tion)                                                                                            
                                                                                                  
 block7c_activation (Activa  (None, 7, 7, 3840)           0         ['block7c_bn[0][0]']          
 tion)                                                                                            
                                                                                                  
 block7c_se_squeeze (Global  (None, 3840)                 0         ['block7c_activation[0][0]']  
 AveragePooling2D)                                                                                
                                                                                                  
 block7c_se_reshape (Reshap  (None, 1, 1, 3840)           0         ['block7c_se_squeeze[0][0]']  
 e)                                                                                               
                                                                                                  
 block7c_se_reduce (Conv2D)  (None, 1, 1, 160)            614560    ['block7c_se_reshape[0][0]']  
                                                                                                  
 block7c_se_expand (Conv2D)  (None, 1, 1, 3840)           618240    ['block7c_se_reduce[0][0]']   
                                                                                                  
 block7c_se_excite (Multipl  (None, 7, 7, 3840)           0         ['block7c_activation[0][0]',  
 y)                                                                  'block7c_se_expand[0][0]']   
                                                                                                  
 block7c_project_conv (Conv  (None, 7, 7, 640)            2457600   ['block7c_se_excite[0][0]']   
 2D)                                                                                              
                                                                                                  
 block7c_project_bn (BatchN  (None, 7, 7, 640)            2560      ['block7c_project_conv[0][0]']
 ormalization)                                                                                    
                                                                                                  
 block7c_drop (Dropout)      (None, 7, 7, 640)            0         ['block7c_project_bn[0][0]']  
                                                                                                  
 block7c_add (Add)           (None, 7, 7, 640)            0         ['block7c_drop[0][0]',        
                                                                     'block7b_add[0][0]']         
                                                                                                  
 block7d_expand_conv (Conv2  (None, 7, 7, 3840)           2457600   ['block7c_add[0][0]']         
 D)                                                                                               
                                                                                                  
 block7d_expand_bn (BatchNo  (None, 7, 7, 3840)           15360     ['block7d_expand_conv[0][0]'] 
 rmalization)                                                                                     
                                                                                                  
 block7d_expand_activation   (None, 7, 7, 3840)           0         ['block7d_expand_bn[0][0]']   
 (Activation)                                                                                     
                                                                                                  
 block7d_dwconv2 (Depthwise  (None, 7, 7, 3840)           34560     ['block7d_expand_activation[0]
 Conv2D)                                                            [0]']                         
                                                                                                  
 block7d_bn (BatchNormaliza  (None, 7, 7, 3840)           15360     ['block7d_dwconv2[0][0]']     
 tion)                                                                                            
                                                                                                  
 block7d_activation (Activa  (None, 7, 7, 3840)           0         ['block7d_bn[0][0]']          
 tion)                                                                                            
                                                                                                  
 block7d_se_squeeze (Global  (None, 3840)                 0         ['block7d_activation[0][0]']  
 AveragePooling2D)                                                                                
                                                                                                  
 block7d_se_reshape (Reshap  (None, 1, 1, 3840)           0         ['block7d_se_squeeze[0][0]']  
 e)                                                                                               
                                                                                                  
 block7d_se_reduce (Conv2D)  (None, 1, 1, 160)            614560    ['block7d_se_reshape[0][0]']  
                                                                                                  
 block7d_se_expand (Conv2D)  (None, 1, 1, 3840)           618240    ['block7d_se_reduce[0][0]']   
                                                                                                  
 block7d_se_excite (Multipl  (None, 7, 7, 3840)           0         ['block7d_activation[0][0]',  
 y)                                                                  'block7d_se_expand[0][0]']   
                                                                                                  
 block7d_project_conv (Conv  (None, 7, 7, 640)            2457600   ['block7d_se_excite[0][0]']   
 2D)                                                                                              
                                                                                                  
 block7d_project_bn (BatchN  (None, 7, 7, 640)            2560      ['block7d_project_conv[0][0]']
 ormalization)                                                                                    
                                                                                                  
 block7d_drop (Dropout)      (None, 7, 7, 640)            0         ['block7d_project_bn[0][0]']  
                                                                                                  
 block7d_add (Add)           (None, 7, 7, 640)            0         ['block7d_drop[0][0]',        
                                                                     'block7c_add[0][0]']         
                                                                                                  
 block7e_expand_conv (Conv2  (None, 7, 7, 3840)           2457600   ['block7d_add[0][0]']         
 D)                                                                                               
                                                                                                  
 block7e_expand_bn (BatchNo  (None, 7, 7, 3840)           15360     ['block7e_expand_conv[0][0]'] 
 rmalization)                                                                                     
                                                                                                  
 block7e_expand_activation   (None, 7, 7, 3840)           0         ['block7e_expand_bn[0][0]']   
 (Activation)                                                                                     
                                                                                                  
 block7e_dwconv2 (Depthwise  (None, 7, 7, 3840)           34560     ['block7e_expand_activation[0]
 Conv2D)                                                            [0]']                         
                                                                                                  
 block7e_bn (BatchNormaliza  (None, 7, 7, 3840)           15360     ['block7e_dwconv2[0][0]']     
 tion)                                                                                            
                                                                                                  
 block7e_activation (Activa  (None, 7, 7, 3840)           0         ['block7e_bn[0][0]']          
 tion)                                                                                            
                                                                                                  
 block7e_se_squeeze (Global  (None, 3840)                 0         ['block7e_activation[0][0]']  
 AveragePooling2D)                                                                                
                                                                                                  
 block7e_se_reshape (Reshap  (None, 1, 1, 3840)           0         ['block7e_se_squeeze[0][0]']  
 e)                                                                                               
                                                                                                  
 block7e_se_reduce (Conv2D)  (None, 1, 1, 160)            614560    ['block7e_se_reshape[0][0]']  
                                                                                                  
 block7e_se_expand (Conv2D)  (None, 1, 1, 3840)           618240    ['block7e_se_reduce[0][0]']   
                                                                                                  
 block7e_se_excite (Multipl  (None, 7, 7, 3840)           0         ['block7e_activation[0][0]',  
 y)                                                                  'block7e_se_expand[0][0]']   
                                                                                                  
 block7e_project_conv (Conv  (None, 7, 7, 640)            2457600   ['block7e_se_excite[0][0]']   
 2D)                                                                                              
                                                                                                  
 block7e_project_bn (BatchN  (None, 7, 7, 640)            2560      ['block7e_project_conv[0][0]']
 ormalization)                                                                                    
                                                                                                  
 block7e_drop (Dropout)      (None, 7, 7, 640)            0         ['block7e_project_bn[0][0]']  
                                                                                                  
 block7e_add (Add)           (None, 7, 7, 640)            0         ['block7e_drop[0][0]',        
                                                                     'block7d_add[0][0]']         
                                                                                                  
 block7f_expand_conv (Conv2  (None, 7, 7, 3840)           2457600   ['block7e_add[0][0]']         
 D)                                                                                               
                                                                                                  
 block7f_expand_bn (BatchNo  (None, 7, 7, 3840)           15360     ['block7f_expand_conv[0][0]'] 
 rmalization)                                                                                     
                                                                                                  
 block7f_expand_activation   (None, 7, 7, 3840)           0         ['block7f_expand_bn[0][0]']   
 (Activation)                                                                                     
                                                                                                  
 block7f_dwconv2 (Depthwise  (None, 7, 7, 3840)           34560     ['block7f_expand_activation[0]
 Conv2D)                                                            [0]']                         
                                                                                                  
 block7f_bn (BatchNormaliza  (None, 7, 7, 3840)           15360     ['block7f_dwconv2[0][0]']     
 tion)                                                                                            
                                                                                                  
 block7f_activation (Activa  (None, 7, 7, 3840)           0         ['block7f_bn[0][0]']          
 tion)                                                                                            
                                                                                                  
 block7f_se_squeeze (Global  (None, 3840)                 0         ['block7f_activation[0][0]']  
 AveragePooling2D)                                                                                
                                                                                                  
 block7f_se_reshape (Reshap  (None, 1, 1, 3840)           0         ['block7f_se_squeeze[0][0]']  
 e)                                                                                               
                                                                                                  
 block7f_se_reduce (Conv2D)  (None, 1, 1, 160)            614560    ['block7f_se_reshape[0][0]']  
                                                                                                  
 block7f_se_expand (Conv2D)  (None, 1, 1, 3840)           618240    ['block7f_se_reduce[0][0]']   
                                                                                                  
 block7f_se_excite (Multipl  (None, 7, 7, 3840)           0         ['block7f_activation[0][0]',  
 y)                                                                  'block7f_se_expand[0][0]']   
                                                                                                  
 block7f_project_conv (Conv  (None, 7, 7, 640)            2457600   ['block7f_se_excite[0][0]']   
 2D)                                                                                              
                                                                                                  
 block7f_project_bn (BatchN  (None, 7, 7, 640)            2560      ['block7f_project_conv[0][0]']
 ormalization)                                                                                    
                                                                                                  
 block7f_drop (Dropout)      (None, 7, 7, 640)            0         ['block7f_project_bn[0][0]']  
                                                                                                  
 block7f_add (Add)           (None, 7, 7, 640)            0         ['block7f_drop[0][0]',        
                                                                     'block7e_add[0][0]']         
                                                                                                  
 block7g_expand_conv (Conv2  (None, 7, 7, 3840)           2457600   ['block7f_add[0][0]']         
 D)                                                                                               
                                                                                                  
 block7g_expand_bn (BatchNo  (None, 7, 7, 3840)           15360     ['block7g_expand_conv[0][0]'] 
 rmalization)                                                                                     
                                                                                                  
 block7g_expand_activation   (None, 7, 7, 3840)           0         ['block7g_expand_bn[0][0]']   
 (Activation)                                                                                     
                                                                                                  
 block7g_dwconv2 (Depthwise  (None, 7, 7, 3840)           34560     ['block7g_expand_activation[0]
 Conv2D)                                                            [0]']                         
                                                                                                  
 block7g_bn (BatchNormaliza  (None, 7, 7, 3840)           15360     ['block7g_dwconv2[0][0]']     
 tion)                                                                                            
                                                                                                  
 block7g_activation (Activa  (None, 7, 7, 3840)           0         ['block7g_bn[0][0]']          
 tion)                                                                                            
                                                                                                  
 block7g_se_squeeze (Global  (None, 3840)                 0         ['block7g_activation[0][0]']  
 AveragePooling2D)                                                                                
                                                                                                  
 block7g_se_reshape (Reshap  (None, 1, 1, 3840)           0         ['block7g_se_squeeze[0][0]']  
 e)                                                                                               
                                                                                                  
 block7g_se_reduce (Conv2D)  (None, 1, 1, 160)            614560    ['block7g_se_reshape[0][0]']  
                                                                                                  
 block7g_se_expand (Conv2D)  (None, 1, 1, 3840)           618240    ['block7g_se_reduce[0][0]']   
                                                                                                  
 block7g_se_excite (Multipl  (None, 7, 7, 3840)           0         ['block7g_activation[0][0]',  
 y)                                                                  'block7g_se_expand[0][0]']   
                                                                                                  
 block7g_project_conv (Conv  (None, 7, 7, 640)            2457600   ['block7g_se_excite[0][0]']   
 2D)                                                                                              
                                                                                                  
 block7g_project_bn (BatchN  (None, 7, 7, 640)            2560      ['block7g_project_conv[0][0]']
 ormalization)                                                                                    
                                                                                                  
 block7g_drop (Dropout)      (None, 7, 7, 640)            0         ['block7g_project_bn[0][0]']  
                                                                                                  
 block7g_add (Add)           (None, 7, 7, 640)            0         ['block7g_drop[0][0]',        
                                                                     'block7f_add[0][0]']         
                                                                                                  
 top_conv (Conv2D)           (None, 7, 7, 1280)           819200    ['block7g_add[0][0]']         
                                                                                                  
 top_bn (BatchNormalization  (None, 7, 7, 1280)           5120      ['top_conv[0][0]']            
 )                                                                                                
                                                                                                  
 top_activation (Activation  (None, 7, 7, 1280)           0         ['top_bn[0][0]']              
 )                                                                                                
                                                                                                  
 max_pool (GlobalMaxPooling  (None, 1280)                 0         ['top_activation[0][0]']      
 2D)                                                                                              
                                                                                                  
==================================================================================================
Total params: 117746848 (449.17 MB)
Trainable params: 117234272 (447.21 MB)
…
